maddpg_critic_1.pth (torch, 559154 bytes, 11 tensors)

va1.0.weight f4 [128, 48]
000000 12 dd 7f 3e 62 a7 df 3f 17 44 c3 3d 1e 04 33 be
       0.24986675 1.7472956 0.095344715 -0.1748204
000010 b4 f6 0c be a6 d8 0b 3d bb 72 ae bb f2 06 37 be
       -0.13765985 0.03414216 -0.0053237355 -0.17873743
000020 63 b8 94 3e 03 7a c7 3f 1e f2 14 be 02 19 75 bb
       0.29046926 1.558411 -0.14545485 -0.003739894
000030 1f 96 c2 3d f0 27 25 3e dd 0f ce bc 1e 28 ca bd
       0.095012896 0.16128516 -0.025154049 -0.09870933
000040 11 d0 60 3e b2 b6 d9 3f ff 77 92 bd fd 84 ad 3b
       0.21954371 1.7008879 -0.07151794 0.0052953945
000050 8f c7 83 3e c1 13 39 3a a2 bc b1 3d 9e a4 bb bd
       0.2573819 0.00070601335 0.08678557 -0.091622576
000060 00 35 ed bd e6 6e cb 3f a2 c7 bf 3d 8a 4a a5 3e
       -0.115823746 1.5893219 0.09364249 0.3228343
000070 83 fc 8e 3d cc af bb 3d 9a d4 7c 3d de f9 62 3e
       0.069817565 0.0916439 0.06172619 0.2216563
000080 da 14 ee 3d 01 4d c4 3f 19 8c ad bd 95 59 f0 be
       0.11625071 1.5336 -0.08473987 -0.46943346
000090 76 0c 58 3d 14 69 58 3d a7 6e f8 3c ae 66 df be
       0.05274626 0.052834585 0.0303262 -0.43633026
0000a0 a9 9a 6d 3d 5c a6 e3 3f be c5 8e bd 51 ab bb 3e
       0.058008824 1.7785144 -0.0697131 0.36654142
0000b0 cf d4 69 be 67 7b c4 3d f4 0f 00 bd f2 15 a2 3e
       -0.22835086 0.0959385 -0.031265214 0.31657368
0000c0 8d 5b 97 3e a7 c0 2f bf 52 30 04 bd e3 e7 6a be
       0.29562035 -0.6865334 -0.032272644 -0.2294002
0000d0 4a f1 14 3e 59 8c 6b be 52 37 11 3c ad b7 0c be
       0.1454517 -0.23002757 0.008863287 -0.13741942
0000e0 f8 6c 5d 3e f0 bf 9f be 94 1c e0 bd 6c 61 14 3d
       0.216236 -0.31201124 -0.10942951 0.03622572
0000f0 09 03 c2 3e 7e f1 c8 bc a8 c6 9e bd 40 7e a9 3d
       0.3789294 -0.024529215 -0.077527344 0.082760334
000100 83 c7 86 3e 4c 7c c7 be b8 29 3a bc 2f 64 74 be
       0.2632409 -0.38962018 -0.011362486 -0.23866342
000110 17 23 35 3f e5 9d 8f 3e c1 9a f5 3c 16 6d 47 be
       0.7075667 0.2805015 0.029981019 -0.19475207
000120 7d ed eb 3e a4 26 9d bf 86 70 17 be 18 59 d4 be
       0.46079627 -1.2277417 -0.14789018 -0.41474223
000130 44 da a8 bd 2d 98 af be 77 84 4f bd a0 06 c7 be
       -0.08244756 -0.34295788 -0.050663438 -0.38872242
000140 83 2d a9 3e 3e 98 a3 bf 4f dd 27 bd 40 0c fe bc
       0.33042535 -1.2780836 -0.04098254 -0.0310117
000150 73 ad bd be bd 3f 6e bd b5 46 a5 bd 1a 8e 31 ba
       -0.37046394 -0.058166254 -0.08070127 -0.0006773189
000160 c0 76 a1 3e cf 44 b3 bf 7b 5c be 39 72 78 21 3e
       0.31535912 -1.4005374 0.00036308527 0.15768602
000170 56 f0 33 bf c8 d4 83 3e c9 57 22 3d 7d ea d5 3d
       -0.702886 0.25748277 0.0396345 0.10445116
000180 b2 e7 95 3e b6 38 29 bf 1f 67 fe bc f5 93 cd be
       0.29278332 -0.6610216 -0.031055031 -0.40151945
000190 4d 28 b9 3e 88 08 a3 be 4b 34 17 be 04 18 d5 be
       0.3616356 -0.31842446 -0.14766042 -0.41619885
0001a0 da 0a f8 3d 4b f1 82 bf 21 bd 27 bd c6 c9 d3 3e
       0.12111445 -1.0229887 -0.04095185 0.41364878
0001b0 fe 2d 12 3d 4c 4b 5d 3d f9 89 c1 bd 18 73 0c 3f
       0.035688393 0.054026887 -0.09450144 0.5486312
0001c0 e4 3b 7f 3e 70 46 a9 bf c7 d0 97 3d 2e 07 49 3f
       0.2492519 -1.3224621 0.07412868 0.7852658
0001d0 52 c1 89 bd d7 04 1b 3f e1 9a 82 3d 2a bc 4e 3f
       -0.06726326 0.6055426 0.06377197 0.80755866
0001e0 0b 7a 20 3f 1f c1 a4 be 03 4e 09 3e 33 df f6 3d
       0.6268622 -0.3217859 0.13408665 0.120542906
0001f0 0f 93 97 be 2f c1 80 be db c9 b6 3d 33 38 6a 3e
       -0.29604384 -0.25147387 0.089252196 0.22873001
000200 36 6d c0 3e 6f 31 11 bf 84 b8 ae bd e1 ed bc be
       0.3758332 -0.56716055 -0.08531287 -0.36900237
000210 69 e4 0b bd 1d f3 98 3d 4a cc 31 be 1a 47 a6 be
       -0.034153376 0.07468245 -0.17363086 -0.3247612
000220 59 bd bb 3e 02 c0 32 bf 21 3f dc bd da be 1b bf
       0.36667898 -0.6982423 -0.107542284 -0.6083809
000230 da 18 21 3e d1 6b 25 3f 5e ec 81 bc 4c 7d 1c bf
       0.15732136 0.6461764 -0.015859779 -0.6112869
000240 54 9e 11 3e 39 69 6e 3f 38 3f 42 be 63 5f 51 3f
       0.14220554 0.9312931 -0.18969429 0.81786174
000250 3b 2d 86 3c 5d a9 32 bf 7a 29 4a be a2 41 49 3f
       0.01637899 -0.6978968 -0.19742385 0.7861577
000260 f7 1e 39 3e 40 ef 6f 3f e2 49 70 bc ec 01 93 be
       0.18078218 0.9372444 -0.014666053 -0.28712404
000270 2c b8 63 3d 33 88 15 bf 55 f3 20 3d a6 02 5f be
       0.05559556 -0.5841095 0.03929456 -0.21778354
000280 6e 77 0a 3e 6f 18 7e 3f f1 71 92 3d 95 08 40 3f
       0.13522121 0.9925603 0.07150639 0.75013095
000290 d6 17 46 bd 99 29 f6 be c8 cb c6 3d 43 57 3d 3f
       -0.048362575 -0.48078611 0.09706837 0.73961276
0002a0 b9 e1 23 3e 61 c7 02 40 76 b0 87 be b1 46 c1 be
       0.16004075 2.0434191 -0.26501817 -0.37749246
0002b0 c3 18 15 3d 64 ad 0b bf 15 57 50 be f7 05 59 be
       0.036400568 -0.5456145 -0.20345719 -0.21193682
0002c0 6e 38 23 3e 3c c5 e6 3f f9 57 b1 3c 4e 8e 18 bf
       0.15939495 1.8028941 0.021648394 -0.5959214
0002d0 be 5b ea bc f2 46 38 bf cb 0d eb 3c 29 e9 1d bf
       -0.0286082 -0.71983254 0.0286931 -0.616839
0002e0 3c 5b 2a 3e da b3 a7 3f 62 71 b5 bc e5 5a 11 bf
       0.16636366 1.3101761 -0.022148792 -0.5677932
0002f0 13 30 2a 3d 51 e4 0d bf d3 94 00 bd 8a 86 2e bf
       0.041549753 -0.5542651 -0.03139193 -0.6817404
000300 4e 49 ef 3d 31 35 c5 bc 3d 3d b7 bd 48 06 a3 be
       0.11683904 -0.024073215 -0.08947227 -0.3184073
000310 4a 78 6a be 20 4c 2f bf 19 8d 43 be e8 3a 79 be
       -0.22897449 -0.6847553 -0.19096793 -0.24338877
000320 79 05 1a 3e 5e 5e 4e be 68 94 0c bc 6d 31 40 bf
       0.1504115 -0.20153186 -0.008580305 -0.7507542
000330 31 a5 ae be 8a 7e fd be 64 63 4a bb 3c 30 35 bf
       -0.34110406 -0.49510604 -0.0030881995 -0.70776725
000340 69 9c a8 bd 93 f4 81 be 7d 12 0e be 4e e3 7d be
       -0.08232958 -0.25381908 -0.1387424 -0.24793741
000350 ca 48 ee be 00 60 b5 be 98 08 20 be 5c b2 57 be
       -0.4653991 -0.35424805 -0.15628278 -0.21064132
000360 10 49 94 3f 08 6e 82 bf c6 6f 74 3d a9 be 45 3d
       1.1584797 -1.0189829 0.059676908 0.04827753
000370 7d 7d 99 3e 1d 02 13 bf 19 6d 83 3d a3 9a 00 3e
       0.29978552 -0.574251 0.06417293 0.12558989
000380 d9 cc 7d 3f a1 a0 a1 bf e0 77 b7 bc 60 a3 e4 bb
       0.991407 -1.2627145 -0.022396028 -0.0069774836
000390 8f 90 85 3e e0 1c 18 bf 28 f6 d0 bc 22 c6 c1 bc
       0.26086852 -0.5941906 -0.025508001 -0.023654047
0003a0 2e 31 a8 3e 5c 1a ac bf a6 3b 9a bd 19 7a cf 3e
       0.3285002 -1.3445544 -0.07530908 0.4052284
0003b0 70 39 c8 3e 7f d7 ba be 00 89 1b be 4a 3c ad 3e
       0.3910632 -0.36492535 -0.1518898 0.3383506
0003c0 87 0b 23 be ec f5 1f 3f fc 9f bc bd d9 db b8 bd
       -0.15922366 0.6248462 -0.09210202 -0.090263076
0003d0 32 7b 45 3f e2 a9 4c bf a5 68 18 3d 20 88 08 bd
       0.77141106 -0.7994672 0.03720917 -0.033332944
0003e0 c8 75 09 3d 02 dd 51 3f 65 d6 2e be e1 8a a1 3e
       0.03355959 0.81977856 -0.17073973 0.3155127
0003f0 a0 2a 93 3d 31 a7 2a bf 2e a1 27 bc f7 9c b1 3e
       0.071858644 -0.66661364 -0.010231299 0.34690067

va1.0.bias f4 [128]
000000 59 18 30 bf 52 85 f8 be c4 41 3d be ae 2c da bd
       -0.6878715 -0.48539215 -0.18482119 -0.10653053
000010 aa 97 44 be 3a bc 13 bd 7f 07 04 bf 52 41 f0 be
       -0.1919848 -0.03606818 -0.5157394 -0.46924835
000020 96 ac 1c be 60 f8 07 bf 3c 5a 3a be 3e 96 6c bf
       -0.15300211 -0.53113365 -0.18198484 -0.9241675
000030 fd d9 30 be 18 fe 4c bf 2e b9 59 bf 3b f9 90 3d
       -0.17270656 -0.80075216 -0.85048187 0.07078787
000040 6f a1 54 be aa 44 63 be bc 45 c4 bd 8f 40 f0 be
       -0.20764707 -0.22194162 -0.09583613 -0.46924254
000050 07 41 db 3c 44 19 32 bf 69 ea 31 bf 04 73 ab be
       0.026764406 -0.695698 -0.69498307 -0.33486187
000060 92 79 48 be 00 81 13 bf ea d5 76 be 61 42 df be
       -0.19577625 -0.57618713 -0.24105039 -0.4360533
000070 3b 6b 82 be 68 47 07 3f ee 44 b7 3e ac f1 21 bf
       -0.25472435 0.5284333 0.35794777 -0.63259387
000080 9a bc 97 be ed dc af be 86 93 72 bf 13 0e ea be
       -0.2963608 -0.3434824 -0.9475635 -0.45713863
000090 43 3b 31 bc c2 36 54 3d 24 de 68 bf 07 47 a8 be
       -0.010817352 0.051810034 -0.9096396 -0.3286669
0000a0 e0 c6 0d be dc e8 93 bd 9c 12 0d bc 14 26 85 be
       -0.13845396 -0.07222149 -0.008610394 -0.26005614
0000b0 d6 89 8d be bc 6b 03 bf da 53 9e be ca 80 1f bf
       -0.27644223 -0.51336265 -0.3092335 -0.6230589
0000c0 33 e1 d5 be 88 01 29 3e e2 6f e8 be d4 a5 2d be
       -0.41773376 0.1650449 -0.4539786 -0.1695779
0000d0 6f c8 dd be d7 35 dc bc ad 1f 91 be ad 8e cb be
       -0.4331698 -0.026881142 -0.2834448 -0.3975729
0000e0 5f 7e b4 be f8 e4 75 be 7c 41 3b bf 50 98 0e 3e
       -0.35252663 -0.24013126 -0.73146796 0.1392529
0000f0 e1 73 01 be f9 79 74 3d 8a 6e e3 be 66 76 db bd
       -0.1264186 0.059686635 -0.44420272 -0.10715942
000100 be 27 2d 3f d2 09 1e 3e 86 ad 31 be 0d 08 03 bf
       0.67638767 0.15433434 -0.1735135 -0.5118416
000110 11 6f 3e bf 39 96 2e 3f fd 20 17 bf 03 cf 6c bf
       -0.74388224 0.6819797 -0.5903471 -0.92503375
000120 f7 ed e6 be 8b bc c7 be cf 2d 7c 3f 7b 93 8b 3e
       -0.45103428 -0.39011034 0.985074 0.27260956
000130 bb eb 1b bd 74 5a 95 bd 6b 49 ff be 6c 88 ca bb
       -0.038066607 -0.07292643 -0.498607 -0.0061808135
000140 3e d3 00 bf ed 87 08 bf 10 20 e8 be 16 fe 31 bd
       -0.5032233 -0.53332406 -0.45336962 -0.043455206
000150 a9 a2 bb bd aa 98 17 be 61 35 6f bb 7a 26 87 be
       -0.09161884 -0.1480433 -0.0036500322 -0.26396543
000160 d7 40 eb be 30 5f 5f bd d5 77 00 3f e5 d8 0d bf
       -0.45947906 -0.054534137 0.5018285 -0.5540908
000170 c5 ac 04 bf 3d 89 5a be a8 4b f5 be 19 84 ac be
       -0.51826125 -0.21341415 -0.47909284 -0.33694533
000180 10 ea 02 3e 56 07 71 bd a6 e0 07 bf 33 a0 2b bf
       0.127846 -0.058844887 -0.5307716 -0.6704132
000190 2e 50 b1 3e 4f d3 88 be 42 52 65 3e 8e 21 fd be
       0.34631485 -0.26723716 0.2239466 -0.49439663
0001a0 8a f1 37 3d 24 94 53 bf 53 51 77 be 73 ab bd 3d
       0.044908084 -0.8264792 -0.24152116 0.09261217
0001b0 b9 a0 d0 be 55 31 49 bc f3 02 56 bf da fc 15 bf
       -0.40747622 -0.012279828 -0.8359825 -0.58588946
0001c0 fe 66 18 be dc 25 34 bf b5 16 a6 bd d2 a3 3c be
       -0.14883038 -0.7037027 -0.081098 -0.18421867
0001d0 9d 6b 60 be ab 4a 61 bf af 7e e1 bd a0 e1 13 3d
       -0.21916051 -0.8800456 -0.11010491 0.036103845
0001e0 87 7b 84 be 5e ef 58 be 43 aa 08 3f ac 33 e5 be
       -0.25875494 -0.21185061 0.533848 -0.44765985
0001f0 f9 39 1a be 1a 2f 2f be 15 f9 c5 be ca e1 06 bf
       -0.15061177 -0.17107812 -0.38666597 -0.52688277

va2.0.weight f4 [128, 2]
000000 2b 4e 1a bd 30 f1 af 3d e7 11 06 bc 86 53 44 3d
       -0.037672203 0.08590925 -0.008182979 0.047931217
000010 0b ca 27 bf b8 77 42 3f c6 a1 b0 3f 40 eb 2b 3f
       -0.6554267 0.75963926 1.3799369 0.6715584
000020 9d e1 ae be f1 f6 36 bd 4e b2 6d bd 41 03 36 3d
       -0.34156504 -0.044669095 -0.058031373 0.044436697
000030 6d 94 ce 3b b0 5f 7d 3d d2 bc 94 bf 43 f0 64 3e
       0.006304315 0.061858833 -1.1620123 0.22357278
000040 47 72 4a 3e ab 8e bf be 21 3b 7f be 9f fb 2c 3f
       0.19770156 -0.37413535 -0.249249 0.67571443
000050 c2 d6 18 bd 5f c5 80 3d be 61 63 bd af 44 ae 3e
       -0.037314184 0.062876455 -0.055513136 0.34036776
000060 5e ed 53 bf 2c d9 6c 3f bf ee 66 3d 3d 5d cc 3c
       -0.8278407 0.9251888 0.05638003 0.024946803
000070 c8 d8 95 3d e2 cc 99 3d 14 03 e9 bb 04 83 24 bd
       0.07316738 0.075097814 -0.0071109626 -0.04016401
000080 a5 69 bf be ed 9a bc be de 52 32 3d 7a d8 bb 3b
       -0.37385288 -0.3683695 0.04353606 0.005732593
000090 c0 ee 1b bd 0e 09 82 bd af 93 6a 3f 07 76 57 3f
       -0.038069487 -0.06349383 0.916316 0.8416447
0000a0 b7 d2 22 3d 53 97 8c bc 19 02 77 3e 5e 04 89 3d
       0.039751735 -0.017162 0.24121894 0.06690286
0000b0 d6 b2 45 bd 1b b5 83 bd 9f 62 bd 3c 21 7a f4 3c
       -0.048266254 -0.064310275 0.023118315 0.029843392
0000c0 6d 53 9d 3d 5c da 60 bd 1e 5d 9c bc 07 82 16 bd
       0.07681928 -0.054895744 -0.01908737 -0.036745097
0000d0 d6 ba 24 be ce 66 80 3e 77 4a 83 3c c6 77 fb bc
       -0.16086897 0.25078434 0.016026719 -0.03069676
0000e0 d3 6d a5 3d 09 90 cd 3c 13 9b b2 bd a2 8c 05 bb
       0.08077588 0.025093095 -0.08720984 -0.0020378013
0000f0 1c a1 7c 3d 6a 1b dc be 0e 92 86 3d af a8 80 bd
       0.061677083 -0.42989665 0.065708265 -0.06282174
000100 99 44 3a 3d bd 7d f3 3c 9e 2a 9f 3f f4 05 1f be
       0.045475576 0.029723043 1.2434881 -0.15529615
000110 f3 e6 ad be a8 7d 95 be 29 80 a7 3d c1 57 3c 3d
       -0.33965263 -0.2919743 0.081787415 0.045982126
000120 b6 09 22 3d e5 a1 9d bd df b1 0d bb af c9 c9 bb
       0.039560042 -0.076968946 -0.0021620912 -0.0061580758
000130 e8 a2 aa 3f cc 75 4d 3f c2 55 b4 3d ef ed b0 bd
       1.3330965 0.8025787 0.088054195 -0.08639132
000140 74 18 26 3b a3 80 b7 3b 61 97 00 3e e1 2d 9e 3e
       0.0025344165 0.0056000515 0.12557746 0.30894378
000150 dc 30 11 bf aa fa 13 3f 68 98 3d 3d db 68 49 bc
       -0.5671518 0.5780436 0.046287924 -0.012293066
000160 d4 04 05 bf 5c b7 91 be 7c fb 05 3d e6 ed 92 bd
       -0.5196049 -0.28460205 0.032710537 -0.07174282
000170 03 1a da bc 73 d8 9e 3c 30 a3 76 3d f4 80 8b bd
       -0.026623731 0.01939032 0.06021422 -0.06811705
000180 75 9e c0 3d 19 07 ac be 63 11 40 bd 30 e5 c2 bb
       0.09405223 -0.33599165 -0.04689158 -0.0059477314
000190 88 1b 68 bd 02 52 51 bc c5 be ea 3d 99 00 50 3d
       -0.05666688 -0.0127759 0.11462168 0.05078182
0001a0 8d 9c cb bb 22 73 23 bc 0f 60 2c 3d 0a d8 53 3c
       -0.0062137307 -0.00997618 0.042083796 0.012929926
0001b0 26 a4 2d 3f 93 09 f1 be cf 77 53 3d 0a a7 97 bd
       0.67828596 -0.47077617 0.05162793 -0.07404907
0001c0 41 9e 8a bd 4d 23 ac bd 38 13 49 bd 09 1c 0c 3d
       -0.06768466 -0.084051706 -0.049090594 0.034206424
0001d0 2a 31 b1 bb 15 2a 9e bb 00 fc de 3c 58 1c b3 bd
       -0.005407472 -0.004826794 0.027219772 -0.087456405
0001e0 23 56 48 bd 9d 5b 31 3e 66 d9 43 3e 11 c5 b7 3e
       -0.04891027 0.17320104 0.191259 0.35892537
0001f0 4b e2 16 3e b6 30 2d be 89 0e 92 3d 96 c2 a4 3c
       0.14734761 -0.16913113 0.071316786 0.020112317
000200 ab ab 73 3d 6e cd ae 3b e6 39 b1 3d 2c bf 8a bd
       0.059489887 0.0053345477 0.086536214 -0.067747444
000210 40 80 fe be 5f 3c c5 be 05 70 57 bd d7 38 e2 bc
       -0.49707222 -0.38522622 -0.052597065 -0.027614994
000220 15 53 33 bc ed 69 e6 bb 5f 9b 3c bc ea 57 b3 bd
       -0.010945101 -0.0070316703 -0.011511653 -0.08757003
000230 37 14 ac be aa b9 dc 3d f7 8d 00 3d 42 e5 8f 3b
       -0.33609173 0.107776 0.03138539 0.0043913433
000240 1a 63 66 3f 98 2a 4f 3f 89 66 2c bf 67 a0 b0 be
       0.89994967 0.8092437 -0.67343956 -0.34497377
000250 f9 20 b0 3c 64 dc 64 bd f2 a5 d3 be 0c 6e ba 3e
       0.021500098 -0.055874243 -0.41337544 0.36412084
000260 fd 08 ba bc a3 82 0d 3d 36 cb a9 bf c1 94 82 bd
       -0.022709364 0.034548413 -1.326514 -0.06376029
000270 c4 7f 5f 3c c5 ae b4 3b 88 4f a1 3d 19 ff 81 bd
       0.013641302 0.005513998 0.078764975 -0.06347484
000280 1b 8f 9f bd 7e 10 77 bc 06 bc 8d be bd ee ad 3c
       -0.07790967 -0.015079616 -0.27682513 0.021232003
000290 7a 65 c4 3f 29 6a ee be 92 44 1f 3e 4d dd 91 bc
       1.5343468 -0.4656537 0.15553501 -0.01780572
0002a0 ff 65 3e 3f 39 60 3e bf 43 0c 74 bf 79 2b 9f 3f
       0.74374384 -0.74365574 -0.9533121 1.2435142
0002b0 3e 46 0e 3e 3f f7 2f bb 6e a7 3b bd c6 c6 b2 bd
       0.13893983 -0.002685025 -0.04581397 -0.08729319
0002c0 51 e9 9b bd 3b 7e 98 bd 73 7b 19 bb 46 d1 95 bc
       -0.07612861 -0.074459516 -0.0023419529 -0.018288266
0002d0 b9 7b a7 bd 56 f7 8a bd b6 a4 ce bc 88 de 65 bc
       -0.08177895 -0.06785457 -0.025225025 -0.014030106
0002e0 a3 b0 55 bf c3 b4 35 3f 58 28 7f bf c2 72 ab 3f
       -0.8347265 0.70978945 -0.99670935 1.3394396
0002f0 62 b8 a1 3d 59 0b 74 bd 32 89 5e 3f 86 b8 e9 3e
       0.07896496 -0.059581134 0.86928093 0.45648593
000300 15 17 25 3b 64 33 4c be 75 28 8f 3c e2 cf 31 3d
       0.002519076 -0.19941479 0.017475346 0.043411143
000310 79 99 a5 3f e5 3a 85 be 22 56 89 bf 27 1a 5f bf
       1.2937461 -0.26021495 -1.0729411 -0.8714928
000320 30 73 03 be e1 72 3d 3b a2 c8 58 3d 29 be ab bd
       -0.1283691 0.0028907584 0.052925713 -0.083858795
000330 a4 13 00 bf fd 95 83 be be cd 92 3f 73 28 a0 3d
       -0.5002997 -0.2570037 1.1469038 0.07820215
000340 45 23 de bd 80 7f 2c bd 0b d5 96 3e 8b 45 1f bf
       -0.10846571 -0.04211378 0.29459414 -0.6221549
000350 db a0 68 3d f3 fc 46 3b 05 c0 02 be ab 98 b5 bd
       0.05679403 0.0030363172 -0.12768562 -0.0886701
000360 62 b4 91 3f b1 fd 24 be b3 87 25 bf e5 c5 25 bf
       1.1383173 -0.161124 -0.64660186 -0.6475509
000370 ac 0f b0 bd 83 4a cf 3d f7 a4 0c 3d 1a b7 68 3e
       -0.08596739 0.10121634 0.03433701 0.22726098
000380 81 36 3f bd d2 3a 20 3d 08 4c c2 3e 11 35 12 bd
       -0.04668284 0.039118595 0.37948632 -0.03569514
000390 27 0d 25 bd 9f 97 d4 3b 6e 75 b1 bf 0c bc 2f 3d
       -0.040295746 0.006487801 -1.3863962 0.042903945
0003a0 0d 3b ac 3d 27 25 78 3d aa e9 09 3b 73 ef a3 3c
       0.084097005 0.060582306 0.0021043816 0.02001164
0003b0 26 87 6e 3f b8 cb 96 3f 6d 5c c7 bc 4d 5c 15 3d
       0.9317497 1.178092 -0.024336064 0.036464978
0003c0 15 f3 5c 3d de 3e 82 3d 93 e8 7d bf 1d 26 48 bf
       0.05394276 0.06359647 -0.99183005 -0.78183156
0003d0 00 bc ce be fd 79 8e bc 90 2f f7 3b 91 3b 6a 3c
       -0.40377808 -0.017392153 0.0075435117 0.014296428
0003e0 6f 72 9e bd 98 b9 0d 3d 6e a7 a9 3e ae 28 4b 3c
       -0.0773667 0.034600824 0.3313555 0.0123998355
0003f0 17 c6 92 bf bb 90 5a 3e 27 bb 27 be eb 22 6a 3e
       -1.1466702 0.21344273 -0.16379987 0.22864883

va2.0.bias f4 [128]
000000 08 45 07 be 74 12 d6 be 32 9a 46 be 74 51 83 3e
       -0.13209927 -0.41810954 -0.19394758 0.2564808
000010 68 cb f0 3e e3 9e 29 bf ce d3 04 bf cf e1 1a bf
       0.47030187 -0.66258067 -0.5188569 -0.60500807
000020 f8 32 cf 3a ec 21 14 be 61 19 37 be 73 47 de 3e
       0.0015808037 -0.14466065 -0.17880775 0.43413886
000030 cc 7e 60 be 8c 21 8c be e8 e6 ae be e2 51 54 bd
       -0.21923369 -0.27369344 -0.34160542 -0.051835902
000040 aa 8c 1b bd 0f 77 af be f6 0d c2 be 68 28 0a bf
       -0.037975945 -0.34270522 -0.37901276 -0.53967905
000050 a4 b8 3d 3d 75 6a d4 3e d9 c6 98 be ac bc d5 be
       0.046318665 0.4148747 -0.2983921 -0.41745508
000060 39 3c e4 be d2 3f f5 be 76 c3 f2 3e b8 0d b1 be
       -0.44577196 -0.47900254 0.4741475 -0.3458078
000070 2e 4e aa be 57 b1 9f 3e 7b 0b 0d 3f e3 aa 25 bf
       -0.3326277 0.31189987 0.5509564 -0.6471388
000080 3f a1 9f bd 27 16 1f be 4a 49 c5 bc bb d3 cd be
       -0.07794427 -0.15535794 -0.024082799 -0.402006
000090 f4 df 11 bf d2 9e 02 bf 6f 0a 62 3e 83 8d a8 be
       -0.5698235 -0.5102359 0.22074293 -0.32920465
0000a0 aa 98 24 bf 99 be c0 3e b9 70 d4 bd 61 06 58 be
       -0.64295447 0.37645414 -0.10373063 -0.21096183
0000b0 2a 1d 21 3e a3 a8 80 be 13 a9 ee be 40 3f 27 bf
       0.15733781 -0.2512866 -0.46613368 -0.65330887
0000c0 2d bf 19 3f 17 2a 27 bf bc 89 08 bf b1 fe 7f 3e
       0.60057336 -0.652986 -0.53335166 0.24999501
0000d0 02 02 e4 be b1 1b 73 be a9 ec ca bc 93 c2 32 bf
       -0.44532782 -0.23741032 -0.024771051 -0.69828147
0000e0 95 5b 24 bf 9c d5 12 bf 85 4d da bd fe 06 83 be
       -0.64202243 -0.5735719 -0.10659317 -0.25591272
0000f0 fe 8e 5a 3e d2 b3 a3 bc 1c de e0 3e b6 a2 1c bf
       0.2134361 -0.019983206 0.43919456 -0.6118578
000100 b2 80 ac be 9c f8 71 3e f2 c5 67 3e d2 d4 eb be
       -0.33691937 0.23629993 0.22634104 -0.46060807
000110 63 34 b9 bc 6f e8 b8 be dd b7 24 3f 26 7a 10 bf
       -0.022607988 -0.36114833 0.64343053 -0.56436384
000120 61 65 07 bf 04 40 8e 3e a4 af 1c bf b5 44 89 be
       -0.52889067 0.27783215 -0.61205506 -0.26810232
000130 37 df 84 be f7 80 f3 be 6f 0f 5d be 3c dc 21 be
       -0.2595155 -0.4755933 -0.21587919 -0.15806669
000140 1e 51 39 be 26 14 b4 3e c0 3e 16 be bf df 51 3e
       -0.1809735 0.35171622 -0.14672375 0.20495509
000150 8a 5e 8e be e8 64 af be 6b 2d b9 3d 54 93 73 be
       -0.27806503 -0.34256673 0.09041866 -0.2378667
000160 1a 7e 0b bf 09 79 ee be 68 eb f7 be e3 20 12 bf
       -0.5448929 -0.46576717 -0.48421788 -0.5708143
000170 dd 48 06 3d 81 82 f8 be 4d c5 22 bf bc 13 9b 3d
       0.03278433 -0.48537067 -0.6358231 0.075721234
000180 c6 b9 bd 3e 7c 1d b9 3e ed 6d 49 be 30 4e 19 bf
       0.37055796 0.36155307 -0.1967084 -0.5988493
000190 2e f1 37 3e 83 fb 1c bf 57 52 10 3e 16 27 cc be
       0.17963096 -0.61321276 0.1409391 -0.3987357
0001a0 dc 83 82 3e b3 e1 c1 3d 76 78 88 bd cc ab 1d 3e
       0.25491226 0.09466877 -0.06663601 0.15397567
0001b0 fd 1a af 3d 85 68 0d bd ea 53 82 3e 05 72 d1 3e
       0.085500695 -0.034523506 0.25454646 0.40907302
0001c0 07 ab cd be df 52 f3 3e 35 07 3d be ee 48 10 bf
       -0.40169546 0.47524163 -0.1845978 -0.5636128
0001d0 df cd 89 3e 93 13 ab be 21 7a 88 be f4 72 c5 bd
       0.2691488 -0.3341337 -0.26655677 -0.09641066
0001e0 71 de cc be a3 c2 0c bf 8b 5b 03 3f 7e 00 c1 bc
       -0.4001346 -0.5498449 0.5131156 -0.023559805
0001f0 7f 39 bb be 25 f5 da 3e 01 3a 18 bf c3 0b de 3e
       -0.36567304 0.42765155 -0.59463507 0.43368348

va3.0.weight f4 [128, 2]
000000 1c ed 7f 3d 1d 69 0b bd f1 56 78 bd f0 58 98 3c
       0.062481984 -0.03403579 -0.06062979 0.018597096
000010 00 6a f8 3c a3 3a ed 3c 90 fb 09 bd 2f f9 29 3c
       0.030323982 0.028958624 -0.033687174 0.010374351
000020 ed 13 5b 3f de 46 bb bd df 13 a4 bd 9a 2a b1 3d
       0.8557728 -0.09144376 -0.080116026 0.08650704
000030 37 2c ad 3c 7b c2 36 3d 25 c5 00 bf e3 6d d0 3d
       0.021139247 0.044619065 -0.5030082 0.10177209
000040 d3 ac a0 3d 0a 35 7d bd f7 a0 67 3f 5d e5 99 be
       0.078454636 -0.06181816 0.9047999 -0.30057803
000050 f0 34 83 3d 78 ac 99 bd 2e 0c 24 3d 5a 46 3e bb
       0.064065814 -0.07503599 0.040050678 -0.0029033632
000060 59 2a 61 3d 8c ab 93 bd 8d d4 8f bd 18 7c 79 3c
       0.054972026 -0.07210454 -0.07022963 0.01522734
000070 9d dc a7 3d 92 d2 fb 3b 4c 54 96 3d e6 b9 a3 3d
       0.081963755 0.007685014 0.07340297 0.07994442
000080 2b 79 83 3e a2 0a 12 be 68 df 4d bc 38 d3 fe bc
       0.2567838 -0.14261869 -0.012565471 -0.031106576
000090 d2 be 3b 3d d4 26 04 bd 0e 56 46 3d 5d 2a b4 bd
       0.045836277 -0.032263592 0.048421912 -0.08797143
0000a0 c3 bb 2b 3f 9a 1f 9e bc 19 53 3e bf 2d 85 57 bf
       0.67083377 -0.019302178 -0.74345547 -0.84187585
0000b0 de 4d 31 bd cb b6 94 3d 9c 31 7e bd 6a 06 d1 bc
       -0.04328715 0.072614275 -0.06205903 -0.025515754
0000c0 f9 b6 bc 3c 59 db b4 bd 03 17 80 bf 2c 85 33 be
       0.023036467 -0.088309 -1.0007023 -0.1753127
0000d0 02 d6 b3 bd fc 9e 68 3d a0 9d 24 3c 47 d9 9d ba
       -0.08781053 0.056792244 0.010047346 -0.0012042903
0000e0 f3 5c 3e 3d b6 6f 9c bd 50 06 45 be 6d 74 ae be
       0.046475362 -0.07638495 -0.1924069 -0.340732
0000f0 c1 25 38 3f ce 6e e6 3e 60 28 1d 3d 4c 21 31 3c
       0.7193261 0.45006412 0.038368583 0.010811161
000100 14 70 86 3d 32 74 a2 3b ec bb 6b 3f 99 15 2e bf
       0.06564346 0.004957699 0.9208362 -0.68001705
000110 f8 6f 71 3d b7 e5 b2 bb d0 76 7d 3d 7e 56 36 bd
       0.058944672 -0.005459513 0.061880887 -0.04451608
000120 18 0b 32 bf 21 a0 3a be d0 85 41 3d fe 9f b2 3d
       -0.6954818 -0.18225147 0.047246754 0.08721922
000130 9a c1 29 bd fb 2b 16 39 68 8a 5a bf 9c 9a 2f bf
       -0.0414444 0.00014321499 -0.8536744 -0.6859529
000140 8e 88 a4 3d b3 8b f4 3b d6 6a cf 3c 91 f0 18 bd
       0.08033858 0.0074629425 0.025319498 -0.037338797
000150 f5 55 2f 3f 63 e9 0a bf 68 ca 25 3c 84 95 bc bc
       0.68490535 -0.5426237 0.010119058 -0.023020513
000160 07 9f 23 3d 2e ff af bd e2 c1 27 3f cf 68 12 3e
       0.039946582 -0.085935935 0.65530217 0.14297794
000170 d2 57 18 3f 25 d3 70 3f a6 23 66 bc c7 7f 02 bd
       0.59509003 0.9407218 -0.014046585 -0.03186014
000180 ce 35 64 bd b1 ce 45 3e 02 4a 8b 3e 90 ae 23 3d
       -0.055715375 0.19317128 0.272049 0.039961398
000190 3a 31 db bd af ca d9 bd 3b 49 4a bc f7 8f b9 bc
       -0.107027486 -0.10634362 -0.012346561 -0.022651656
0001a0 9d 08 50 be 4d 0c f4 be c8 02 a6 3d 56 49 2b bd
       -0.20315786 -0.47665635 0.08105999 -0.041817985
0001b0 1f 77 aa 3d 84 11 6f bd b4 e6 41 3e 34 4b 52 3c
       0.08323502 -0.058366314 0.18935663 0.012835313
0001c0 d4 6b 4f bd 90 88 ae bd ec cc e4 3d f7 ea dc bd
       -0.050639942 -0.08522141 0.11171898 -0.107870035
0001d0 f0 d9 51 3e 66 a9 30 3e 0e db a4 bd cf 4c 2f bd
       0.20493293 0.1725212 -0.08049594 -0.04279786
0001e0 ae 11 96 be cf 88 e5 be b5 53 9a bd f6 e7 af 3c
       -0.29310364 -0.4483094 -0.07535497 0.021472912
0001f0 95 35 97 bd d8 1a 60 bc 3f 8c d1 3f 78 a5 00 bf
       -0.07383267 -0.013678275 1.6370925 -0.50252485
000200 cf 82 1e 3f 14 68 02 bf 52 c6 8f 3c 4d bd e4 bc
       0.6191835 -0.5094006 0.017550621 -0.027922297
000210 98 f7 02 be ec 1c 0b 3b 28 12 47 3f 3e 24 4d bf
       -0.12789762 0.0021226956 0.7776208 -0.80133426
000220 70 d6 b0 bd 59 ed c1 bb d2 61 3e 3f fa c1 90 3e
       -0.08634651 -0.0059181866 0.7436801 0.28272992
000230 9d 0a 0e 3f f2 30 fb 3e c9 b4 06 bf fe a2 a9 be
       0.55484945 0.4906078 -0.52619606 -0.33132166
000240 d3 b6 5f bf d5 c9 2d 3f cd f9 2b 3f ee bc 8a be
       -0.8738834 0.67886096 0.6717804 -0.27097267
000250 01 c7 04 3e fe 17 f6 bd a8 ce ea 3e 03 96 4d 3e
       0.12966539 -0.12016295 0.4586079 0.20076756
000260 f2 ca 28 3e bc bd 2c bf 58 16 b0 3d 21 88 0a be
       0.16483667 -0.6747701 0.08598012 -0.13528492
000270 f9 cb 71 3f 4c fa 88 bd 40 9b 54 be 3b 3a 7b 3e
       0.9445186 -0.06688365 -0.20762348 0.24533932
000280 d9 37 33 bd c1 52 8f bc c9 a7 02 bd 82 f0 04 3d
       -0.043754432 -0.017495515 -0.031898294 0.03245593
000290 5d 1a 2c 3c 70 78 7d 3d f4 13 d1 3e 3c e9 9b bd
       0.010504332 0.061882436 0.40835536 -0.07612845
0002a0 f6 0f 8e bc f6 b2 94 3d da dc 27 3f f8 c2 3a bf
       -0.017341595 0.072606966 0.6557137 -0.7295375
0002b0 75 50 bd 3e 04 eb 22 3f a5 62 9c 3e 78 0e b2 39
       0.36975446 0.63639855 0.3054401 0.00033961586
0002c0 17 cf 64 3c ed 4a 5a 3d 56 e1 92 bf 93 68 72 3e
       0.01396539 0.05329411 -1.1475017 0.23672704
0002d0 3b 87 ae 3d 8a 32 86 bd bd d4 22 3c 36 07 bc 3c
       0.08521887 -0.06552608 0.009938416 0.022952657
0002e0 90 62 49 bf 9b 91 41 3f d4 a3 b1 3c 26 0b 37 bd
       -0.7866602 0.756128 0.021684565 -0.044688366
0002f0 9e 66 a0 3e ec 8a 44 3e 27 ab 8b 3e d9 28 82 3d
       0.3132829 0.1919362 0.27279016 0.06355447
000300 79 bd b5 3f f9 a8 59 3d 3e 6d 9f bd 51 d2 7d 3d
       1.4198447 0.05313966 -0.07784508 0.06196815
000310 9b 6d ef 3e 79 88 56 3c b6 ef a0 3e 8f 94 29 be
       0.4676331 0.013094061 0.31432885 -0.16560577
000320 89 4a 52 bf 54 bd 07 be 14 03 a9 bd 2e 15 89 bb
       -0.8214498 -0.13255817 -0.0825254 -0.004183433
000330 4b ba af 3f 29 90 05 be a9 85 0e 3d 8c d8 27 bd
       1.3728727 -0.13043274 0.034795437 -0.040978
000340 69 14 a1 3c d5 53 21 3d 87 ab a3 3f c5 8f be be
       0.019663053 0.03938659 1.2786721 -0.37219062
000350 d6 8e 94 3f 6d 41 f4 3e a4 8a c9 3f 08 94 db bd
       1.160609 0.47706166 1.5745435 -0.10721594
000360 d2 8b b2 3e bb c2 a6 bd 96 2d 5f 3d 74 38 5d be
       0.348723 -0.08142611 0.054486834 -0.21603566
000370 b4 29 76 3f e7 4c 19 3f 17 c7 9e bd ad 6c 67 3f
       0.96157384 0.5988297 -0.07752817 0.904002
000380 92 bd 24 3c ec 76 b6 bc 8e a0 77 3f 43 fe 75 bf
       0.010054963 -0.022273503 0.9672936 -0.960911
000390 8b b8 22 3b b7 17 7e bd 95 8b dd bd 09 68 e6 bd
       0.0024829234 -0.062034335 -0.10817639 -0.11250312
0003a0 76 5a 41 3f 3d b2 93 bf da 61 34 3d 3a c8 6b bd
       0.7552866 -1.1538769 0.04403863 -0.057563998
0003b0 67 e4 62 bd 7c 1c f8 bb 03 e0 93 be d1 0f b5 3e
       -0.055393603 -0.007571755 -0.28881845 0.3536363
0003c0 8d 3f 20 bf 05 54 44 3f fa 4a 1b bf 35 8c 3a bf
       -0.6259697 0.76690704 -0.6066128 -0.7287019
0003d0 9e f7 b0 bd 0e 9c a1 bd d3 3a 87 3f 92 d5 58 bf
       -0.08640979 -0.07891093 1.0564827 -0.8470088
0003e0 ad 5d f6 be 54 df 08 3f 3a a1 5c bc 2c 76 a1 3d
       -0.48118344 0.5346577 -0.013466174 0.078838676
0003f0 ab d6 c8 3f f1 bf 97 bd f1 33 83 3d ea ca 31 3c
       1.5690511 -0.07409657 0.064063914 0.010851601

va3.0.bias f4 [128]
000000 38 3b ca be e6 64 e7 bd a5 56 0f bf 10 a3 1c bf
       -0.39498305 -0.11298542 -0.55991584 -0.61186314
000010 86 5d b9 be f2 b5 46 be 28 0d c4 be 28 c1 bb 3e
       -0.36204165 -0.19405344 -0.38291287 0.36670804
000020 38 d6 a0 3e a9 a3 0d be 46 69 b4 be b1 e2 45 bd
       0.31413436 -0.13831963 -0.35236567 -0.048311893
000030 ad 5b 79 be 07 97 a7 be f1 2b 0d be fd f2 2f be
       -0.24351378 -0.32732412 -0.13786294 -0.17182536
000040 11 05 ea 3e 4c f3 01 be 9a fc 22 bf 84 f4 65 be
       0.4570699 -0.12690467 -0.6366669 -0.22456557
000050 62 8a 82 be 7b 89 3b be 18 dd f2 be 5e 07 ff be
       -0.25496203 -0.18314163 -0.47434306 -0.49810308
000060 ae 05 4e be 50 17 17 3d 58 f8 14 bf 5c 6f 65 bc
       -0.20119354 0.036887467 -0.5819144 -0.014003601
000070 69 e5 07 be cf 35 29 3e de 16 ba bd 56 17 e7 bd
       -0.13271107 0.16524433 -0.09086393 -0.11283748
000080 5f 44 92 bd e3 c0 a5 be 80 22 bc be 79 b5 3b be
       -0.07141947 -0.32373723 -0.3674507 -0.18330945
000090 66 ab e5 3e f5 90 21 bf 94 26 10 be 64 af b3 be
       0.4485733 -0.6311181 -0.14077216 -0.3509475
0000a0 59 b5 ba be ad e4 89 bd 4c 1b 7d be 1d f4 d1 bd
       -0.36466482 -0.067330696 -0.24717444 -0.10251639
0000b0 de a7 68 be d2 b7 7e 3d 3f dc 93 be 44 f8 0b bf
       -0.22720286 0.062187023 -0.28878972 -0.546757
0000c0 b2 62 96 3e 33 a0 ef 3e 37 e4 ad 3e 95 b6 c7 be
       0.29372174 0.4680191 0.33963177 -0.39006487
0000d0 35 5f 8b 3e 06 e1 96 be 2d 2c 09 bf af a7 15 3e
       0.27221075 -0.29468554 -0.5358303 0.14614747
0000e0 23 4f ff be 3b 2c 66 3e 13 b8 0f 3f 46 54 f3 be
       -0.49865064 0.2247781 0.5614025 -0.47525233
0000f0 4e a2 28 3e 2f 13 0a be 6b 44 3c be 55 79 a4 be
       0.16468164 -0.1348388 -0.18385474 -0.3212382
000100 3a b1 56 be 7d 68 f6 be ce 74 1a 3f 58 84 44 be
       -0.20966044 -0.48126593 0.6033448 -0.1919111
000110 2f 29 d1 be 4a 4e 20 3d 37 02 68 be a1 54 f6 3e
       -0.40851733 0.039137162 -0.22657095 0.48111442
000120 dd 71 9f 3e af 02 c3 be ec 49 55 3c 4f f5 02 3e
       0.31141558 -0.38087985 0.013018113 0.1278889
000130 52 4e 80 be 1c d3 ad 3e 23 8e d5 be 1b 72 7d 3c
       -0.25059754 0.33950126 -0.41710004 0.015469099
000140 5d 48 a1 bd f1 47 9d bd 47 0d 08 bf 6c 18 f9 3e
       -0.0787513 -0.07679737 -0.5314526 0.48651445
000150 cc e0 c3 be 25 02 31 be 6c 2a 99 be 3f 67 8c 3e
       -0.38257444 -0.17285974 -0.29915178 0.2742252
000160 e5 52 2b bf 95 46 a1 be a0 7c 2d bf cf 7c 0e bf
       -0.6692336 -0.31499162 -0.6776829 -0.5565919
000170 ec 83 46 3d 26 0e 2b be b1 66 51 bd 42 3e da 3e
       0.048465654 -0.16704616 -0.051123325 0.42625624
000180 66 14 50 be 68 02 57 be 79 cb d9 3e 03 31 f4 3e
       -0.20320281 -0.20997012 0.4253805 0.47693643
000190 13 58 a8 3d 69 11 17 bf f4 a7 20 bf 0c b7 f1 bd
       0.08219924 -0.5901094 -0.62756276 -0.118024915
0001a0 34 60 05 bf 24 8d 69 be fb f4 99 3d fd 5b c7 bd
       -0.5209992 -0.22807747 0.075174294 -0.09734342
0001b0 59 d9 ee 3e 8f 1d ab 3e af 3f 01 bf 49 f3 09 bf
       0.46650198 0.3342099 -0.504878 -0.5388685
0001c0 bb 2b 0f be 89 ed a9 be e2 70 07 bf e0 e6 6c bc
       -0.13981526 -0.33189037 -0.5290662 -0.014459342
0001d0 b8 11 5d 3e 5a 42 28 bf fd 0e d1 be b3 b0 93 bd
       0.2158879 -0.65726244 -0.40831748 -0.07211437
0001e0 3e af 40 be c3 34 dc 3d 91 82 32 bf 71 10 b3 be
       -0.1881685 0.10752251 -0.6973048 -0.3497348
0001f0 b1 f4 73 bd f7 7f 33 3e 5b 02 c3 bd 89 f9 32 bf
       -0.059559528 0.17529283 -0.09521934 -0.6991201

v2.0.weight f4 [256, 384]
000000 38 b7 bd bc 68 b5 1f bb 03 1c 96 3c 75 1f a6 bc
       -0.023158655 -0.00243696 0.018323904 -0.020278672
000010 8c 22 f3 3c 4b 91 fa bc 45 b5 34 3d 1a 85 a0 bd
       0.02967956 -0.03058686 0.044118185 -0.07837887
000020 76 56 cf bb 26 65 b7 3c 92 b8 40 bd 78 b9 0c bd
       -0.0063274456 0.022387099 -0.04705102 -0.034356564
000030 da 5f cb 3c ab 4f f7 3b 19 d5 79 bd 2c 53 87 bd
       0.024825979 0.007547339 -0.06099424 -0.06607661
000040 24 8b aa bc 00 a7 a6 bd ba 1d 15 bd 4e 3b a9 3a
       -0.0208183 -0.081373215 -0.036405303 0.0012911351
000050 00 c5 ad bd 28 a1 a5 bd 3c d1 c8 3b 86 50 f0 bc
       -0.084848404 -0.08087379 0.0061284583 -0.029335272
000060 f4 d3 1d bd a0 6c 67 bd d3 4a 9e 3c db c2 30 bb
       -0.038532212 -0.056500077 0.019322788 -0.0026971612
000070 20 0d b5 bc 8b 92 bc bb d0 cd a3 bd 7e a2 58 bd
       -0.022100985 -0.005754774 -0.0799824 -0.05288934
000080 96 e3 6c bd 2a e8 8c bd cc 7b 8e bc ea 79 60 bd
       -0.05783423 -0.06880219 -0.017393015 -0.054803766
000090 5f 9c 72 3c 6c 09 48 3c 12 72 04 bd 69 2c 57 bd
       0.01480779 0.012209278 -0.03233535 -0.052532587
0000a0 9f 19 10 3d d7 5e 0a bd c5 08 e0 bc 2a ce 79 bc
       0.035180684 -0.033781853 -0.027347932 -0.015246907
0000b0 e2 a7 85 bd 0c 10 b7 bd 1d 00 92 bd a0 f0 47 bd
       -0.06526162 -0.089386076 -0.07128928 -0.048813462
0000c0 c9 f0 bd 3c de 87 6b bc f7 f4 6b bd d5 fd 42 bd
       0.023186104 -0.014375655 -0.057606664 -0.047605354
0000d0 4d 1d ab 3c bc f7 ae bd 1a f9 65 3b a4 f1 ff bc
       0.020887995 -0.08543345 0.0035091103 -0.031243153
0000e0 41 1a 78 bd bb cd bc bc 94 b7 68 3c ba 17 2d bd
       -0.060571913 -0.023047319 0.014203925 -0.042258956
0000f0 d5 41 de bd 16 3e f9 bb 00 ac 57 bd ea bc 14 bd
       -0.108524 -0.007606278 -0.052654266 -0.036312975
000100 52 a4 1a bd 09 01 91 bc 3d 82 d8 bc 32 9d 23 bd
       -0.037754364 -0.017700689 -0.02642929 -0.039944835
000110 4b 25 6b bb f6 78 71 bc 12 ef 88 bd f4 57 1c bd
       -0.0035880383 -0.014738312 -0.06686224 -0.038169816
000120 e7 e3 0c bc 30 8d 05 3d 0b c1 b1 3b 25 7f 8f bc
       -0.008599258 0.03260535 0.005424624 -0.017516682
000130 83 9d 84 bd cb a7 9a bc b7 35 b4 3c 0f ca 16 3d
       -0.064753555 -0.018878838 0.02199827 0.03681379
000140 59 36 b8 3b c9 92 f9 ba d7 36 6a bd b6 36 41 3d
       0.005621713 -0.0019040938 -0.057181206 0.047171317
000150 ce 5f f7 bd 82 1c 6f bd 9d d1 7a 3c 8f db 07 bd
       -0.1207882 -0.058376797 0.015308765 -0.03316837
000160 2f 6c 88 bd bb 83 55 bd 62 63 87 bb 9d ef f8 bc
       -0.066612594 -0.05212758 -0.0041317204 -0.030387694
000170 0b 10 5f 3b d8 6f 45 bd db a3 19 bc 5d 3e 22 bd
       0.0034036662 -0.048202366 -0.009377445 -0.039610256
000180 04 30 88 bc b2 ce 15 bd af 61 96 bc f6 32 0f bd
       -0.016624458 -0.036574073 -0.018357126 -0.03496071
000190 a8 36 aa bd 6e 46 99 3b 17 dc c9 bc 7f b6 f7 bc
       -0.08311206 0.0046775853 -0.02464108 -0.030238388
0001a0 63 7f 88 bd a5 93 c2 bb 03 f8 fe ba 09 89 84 bd
       -0.06664922 -0.0059380108 -0.0019452575 -0.0647145
0001b0 b0 d0 d0 3c 7b 9e ae 3c 95 35 74 bd 74 7c 97 bd
       0.025490135 0.021315804 -0.059621412 -0.073967844
0001c0 8a f5 4d 3c 4b c2 d4 bd 87 92 c4 3c ac 31 40 bc
       0.012570748 -0.10388621 0.023995651 -0.011730593
0001d0 58 cd 94 bd c6 90 09 bd bd e8 67 ba c4 25 26 bc
       -0.07265729 -0.033585332 -0.00088466314 -0.01014084
0001e0 80 b4 a9 bc a8 67 6e bd c4 76 65 bd 3b e8 a2 bd
       -0.020715952 -0.058204323 -0.056021467 -0.07954451
0001f0 4c a0 a3 3b b3 e2 7d bd a6 43 9d 3a 30 04 83 3c
       0.004993474 -0.061983775 0.001199831 0.015993208
000200 a0 19 7a bb d6 28 08 bd b2 2f 57 3c 61 e9 03 bd
       -0.0038162246 -0.03324207 0.01313393 -0.03220499
000210 12 86 7d bd ba 7b 5a 3d 48 d4 f0 bc fb 1b e9 bc
       -0.061895438 0.05334065 -0.029398099 -0.028455725
000220 cf f3 b7 bc 63 e9 b2 bc 00 24 b8 39 bb f4 ff ba
       -0.022455124 -0.021839803 0.00035122037 -0.0019527891
000230 34 18 0c bd 54 82 ba bc 10 02 5c 3d 19 1d 9e 3b
       -0.03420277 -0.022767223 0.053712904 0.004825246
000240 c6 5d 91 bd 96 76 20 bd 68 3f eb bc 05 35 7c 3c
       -0.07097964 -0.039175592 -0.028716758 0.0153935
000250 9f 23 5a bd 49 2a 34 bc 10 6e 36 bc c8 73 64 3c
       -0.053256627 -0.01099641 -0.011134639 0.01394362
000260 00 60 e0 3b 0c 58 55 bd 87 07 1d 3d b0 48 c3 3b
       0.0068473816 -0.05208592 0.038337257 0.0059595928
000270 a8 95 5e 3d d1 be 9c 3c 54 55 02 bd 04 ee 69 bd
       0.054341942 0.019133957 -0.031819656 -0.057111755
000280 78 7f 96 bc 2e e8 d8 3b 44 d7 44 bd e4 17 ab 3c
       -0.018371329 0.006619475 -0.048056856 0.020885415
000290 ae 0d 26 3d 58 a0 62 3d 6e e9 0e 3d a0 4e bc bb
       0.04054039 0.055328697 0.034890585 -0.0057466775
0002a0 a2 a0 18 bd fd 33 3e 3c 91 bf 64 3c 40 e5 40 3b
       -0.037262566 0.011609075 0.013961689 0.0029433519
0002b0 7a 3e 92 bd ca 5b 20 3d 14 91 18 bd e6 bb 22 3d
       -0.07140823 0.039150037 -0.037247732 0.039729975
0002c0 6e 20 c8 bc b4 8f 36 3d 50 43 4a 3c c4 a6 3f bd
       -0.024429526 0.04457064 0.01234515 -0.0467899
0002d0 06 2b 74 bd c8 9a 76 bd fd cf 6f 3c 34 b4 37 3d
       -0.059611343 -0.060206205 0.014636991 0.04484959
0002e0 76 ad 00 3d f8 0a eb bc 00 70 8b b8 0e c0 75 3d
       0.031415425 -0.028691754 -6.648898e-05 0.05999761
0002f0 6f 5b dd bc 2d 10 3d 3d 68 1d 55 bd b4 d5 54 3d
       -0.027021138 0.046158005 -0.052029997 0.051961616
000300 54 0e f2 bc 94 6f 93 bd 39 ab 86 bd 72 dc 26 3d
       -0.029547848 -0.07199016 -0.06575627 0.040737577
000310 b4 d2 1f 3d 74 5d 7b bd ab c4 8d bd 90 81 7c 3c
       0.0390193 -0.06136842 -0.06922277 0.0154117495
000320 f6 05 62 bd ee b7 1d 3d 10 ba 12 3c bc e2 58 3b
       -0.055181466 0.038505487 0.008955494 0.0033094129
000330 38 c4 39 bd b2 78 4c bc f4 bb 12 3d 9a fb 58 bd
       -0.045353144 -0.012479948 0.035823777 -0.05297432
000340 90 aa 9c bc 52 11 7a bd 23 c1 18 bc f8 ab 8a bd
       -0.0191243 -0.061051674 -0.009323391 -0.06771082
000350 66 18 93 bd 11 a8 0f 3c da 20 db 3c 8e 3d 5a 3d
       -0.07182388 0.0087680975 0.026749063 0.05328136
000360 18 05 c4 bc 88 97 40 bc ac 4a 36 bd c0 5b 7c 3b
       -0.02392821 -0.011754878 -0.044504806 0.0038506836
000370 1d 35 92 bc 82 8f b6 bc d8 a9 7f bc 30 2d 2b bb
       -0.017847592 -0.022285227 -0.015604459 -0.0026119463
000380 2f 1c 85 bc 19 d8 d1 3c 5e da f7 3c 39 64 21 3d
       -0.01624879 0.025615739 0.030255493 0.03940222
000390 fe 73 2d bd a4 27 fa bc b8 84 69 bd b7 d9 c3 ba
       -0.042346947 -0.03053648 -0.057011336 -0.0014942203
0003a0 3b d4 be bc 30 6c 8f 3b c1 65 a8 3c fc 1d 7b bd
       -0.023294559 0.0043769106 0.020556333 -0.061307892
0003b0 86 e6 fb 3b 05 1b 45 3d 58 6d ce 3c 54 b0 64 3c
       0.0076873926 0.04812147 0.025198624 0.0139580555
0003c0 e8 c7 02 3c 79 cd df 3c 58 e3 ce 3c c9 36 97 3c
       0.007982232 0.027319657 0.02525489 0.01845874
0003d0 a8 ab 8e bd 9a 33 0d 3d bd db 89 bd 30 3c 11 3c
       -0.069663346 0.03447304 -0.06731365 0.0088644475
0003e0 fa 40 50 bd 75 e6 0e 3d cf f6 b3 bc 2e 3c f3 bc
       -0.050843216 0.03488775 -0.021968273 -0.029691782
0003f0 98 f6 b0 3c 1d d1 8d bd 72 e1 5e 3c 35 8b 83 bd
       0.02160196 -0.06924651 0.013603555 -0.06423036

v2.0.bias f4 [256]
000000 92 21 78 bd 04 38 17 bf 32 7d 52 3a a9 35 5a be
       -0.06057889 -0.5906985 0.000802952 -0.21309532
000010 3d 27 49 be 2f ae 9d be 83 d7 1c be e6 74 8a 3e
       -0.19643874 -0.30796954 -0.15316586 0.2704231
000020 2e 65 44 be f0 eb ef 3d 65 46 8b bd 4b 8b b6 bd
       -0.19179222 0.117149234 -0.06800536 -0.08913287
000030 58 ea 17 bf 3d 5c c9 3d 6d 60 32 bc b6 3b b0 bc
       -0.59341955 0.09832046 -0.0108872475 -0.021512847
000040 b8 8d d6 bc 3b 7b 91 3d 80 29 9a bd 2e ec c0 bd
       -0.026190624 0.071035825 -0.07527447 -0.09420048
000050 b1 42 8e 3d 27 f2 aa 3e 0f 5c 65 be 41 f9 5b 3e
       0.06946314 0.33387873 -0.22398399 0.21481802
000060 82 ff 32 bd 64 33 65 be 10 02 a8 bd 89 84 5e bc
       -0.043700702 -0.22382885 -0.082035184 -0.0135814035
000070 6d 76 8e be bc 85 81 3e 63 2b 4c 3f 8c df 92 3d
       -0.27824727 0.25297344 0.797537 0.071715444
000080 78 ab 38 3e f0 38 16 bd b6 3b db bd e2 21 32 3f
       0.1803416 -0.036675394 -0.10704748 0.6958295
000090 ee b5 bd bd ef c4 ce 3b 1e 38 bf be 8d bd 50 3e
       -0.09263216 0.0063100974 -0.37347502 0.20384808
0000a0 8d 78 df be e0 32 62 3c ac 27 2b be 19 4a cf 3d
       -0.4364666 0.013806075 -0.16714352 0.10121555
0000b0 55 a1 2b be ff 27 1d be ad c8 02 bf 5d 9e f8 3d
       -0.16760762 -0.15347289 -0.51087457 0.121395804
0000c0 2a c1 84 bd 9d 2d 5a bc 5f d0 6c bf 66 ec 2d bc
       -0.064821556 -0.013316539 -0.9250545 -0.010615444
0000d0 7a 70 77 be 62 e4 13 3e 92 dc 54 be a0 1a f0 be
       -0.24164 0.1444259 -0.20787266 -0.46895313
0000e0 be e6 39 be a1 51 8a be 63 2b c9 bc 3b b8 af 3e
       -0.18154427 -0.27015403 -0.024556821 0.34320244
0000f0 dd 94 45 be e6 db 68 bd 3f 71 57 3d 00 3f 17 bd
       -0.19295068 -0.056850336 0.052598234 -0.036925316
000100 5b ca 65 3c d7 6f 91 bd 32 54 31 be c6 d7 23 3e
       0.014025296 -0.0710141 -0.17317274 0.1600028
000110 5a 33 91 bd 84 ee af ba 9f ca e8 bc 5d 6d 9e bd
       -0.07089873 -0.0013422524 -0.02841693 -0.07735703
000120 c8 8f c7 bd 3a 14 27 bf 02 ce 29 be 98 bc 72 be
       -0.09744221 -0.6526524 -0.16582492 -0.23704755
000130 bd 12 d4 bc 71 e2 cc 3d 02 01 63 bd a6 99 be be
       -0.025887841 0.10004128 -0.055420883 -0.372266
000140 ba c8 99 bd 64 b9 e5 bd 4a bc 0c be ea fb 86 bd
       -0.07508989 -0.11217001 -0.13743702 -0.065910175
000150 f6 0d 03 3f 0f cd 49 bf 60 1a 88 3e 1a 50 98 bf
       0.5119318 -0.7882852 0.26582623 -1.1899445
000160 39 cf 0c be 4a 19 3b be d4 e4 d0 3d 02 b3 32 be
       -0.13750924 -0.18271366 0.101998955 -0.17451099
000170 ed 6a ce 3d 9a e7 04 bd 27 5a 10 3f d5 0f a4 be
       0.10078988 -0.032447435 0.5638756 -0.3204333
000180 55 8c 1b bf aa c5 00 bd 3b 7b 83 bf 07 03 ee bc
       -0.60761005 -0.031438507 -1.0271982 -0.029054178
000190 64 1d f5 3d ad 7b cb bb 3c 69 62 be 67 b5 4b be
       0.119684964 -0.0062098117 -0.22110456 -0.19893418
0001a0 a9 b1 16 3f b2 22 6d bd ff 70 a4 bd d6 f9 19 be
       0.5886484 -0.057894416 -0.08029365 -0.15036711
0001b0 90 98 f3 bd 22 fd 37 3e 11 3f ff bd 89 7e 11 bf
       -0.11894333 0.17967656 -0.12463201 -0.568337
0001c0 51 08 4d 3d 2f ff 06 bf 88 f5 a2 bd 53 c2 41 be
       0.05005676 -0.5273313 -0.079569876 -0.18921785
0001d0 cb 98 8e 3e 97 d4 35 be 79 59 ba bd 28 ac 23 bf
       0.27850947 -0.17756878 -0.09099097 -0.63934565
0001e0 86 91 b4 be 18 01 46 3e f5 ec 46 bd 45 4e ab 3e
       -0.35267276 0.19336355 -0.048565824 0.33458152
0001f0 8b ab e8 bd 8c 11 b3 bd 10 c1 bb 39 a6 3d 1c be
       -0.11360844 -0.08743581 0.00035811262 -0.15257892
000200 4b 7f 99 3d c1 61 6f be 2d d9 b4 be 7e 17 00 3e
       0.07494982 -0.23377134 -0.35321942 0.12508962
000210 dc d8 58 bd 95 af 8d be 56 df 4c bd dd 93 05 bd
       -0.05294119 -0.2767302 -0.050017677 -0.032611717
000220 fe 73 8a be 5f 19 35 3e 19 42 52 be a7 df 39 be
       -0.2704162 0.1768546 -0.20533027 -0.18151723
000230 0e 55 b0 bd d0 76 1e bf 61 52 41 3c 1e c8 fc bd
       -0.08609973 -0.61900043 0.011799426 -0.12342857
000240 5d 46 ac be 10 b7 02 be 02 4c 09 bf 9c 3a 9b be
       -0.33647433 -0.12765145 -0.53631604 -0.30318153
000250 a5 6d ca bd 39 dc 57 be da ed 4a 3e 5b b0 c7 3b
       -0.09884194 -0.21080102 0.19817296 0.0060940213
000260 d4 8b 15 be 5c db ed bc a4 fb d6 bd 78 04 1e bd
       -0.14604121 -0.029035263 -0.104972154 -0.03857848
000270 f1 6f 24 be 6e e6 78 be 68 e6 d3 bd f4 d0 96 be
       -0.16058327 -0.24306652 -0.10346681 -0.29456294
000280 2f 68 9f bd 60 e2 5f be 79 e4 63 3d b2 e5 69 bb
       -0.07783543 -0.21863699 0.05563781 -0.0035689888
000290 94 9c 08 be d2 0e 17 3e 84 2d d0 3e 39 2b c1 be
       -0.1334098 0.14751747 0.40659726 -0.3772829
0002a0 c4 37 11 be c4 d5 88 be fc 02 9e 3e b8 9f d8 bd
       -0.14181429 -0.2672559 0.30861652 -0.10577339
0002b0 dd 09 b4 be 6b 73 42 bb 4e 82 30 bd 68 9f ff be
       -0.35163775 -0.0029670845 -0.04309302 -0.49926305
0002c0 cc b3 d7 be 08 78 f1 bd a7 b8 03 be bd 7f 5a 3d
       -0.42129362 -0.11790472 -0.12863408 0.053344477
0002d0 9e 4c a4 be 58 e8 79 bc 78 8a 0e 3d a5 62 b4 bd
       -0.32089704 -0.015253149 0.034800023 -0.088078775
0002e0 f8 d3 9b bd db a7 8c be b3 e6 5f be d0 c2 e9 bd
       -0.07608789 -0.27471814 -0.21865349 -0.11414111
0002f0 ff 3d 96 be ce 0f 67 3b 6b 8d 72 bf c7 78 44 3e
       -0.29344174 0.0035257223 -0.94747037 0.19186698
000300 63 d5 cb bd 7b 67 91 3e a7 3b da 3a bd d5 58 bd
       -0.0995281 0.28399262 0.0016649858 -0.05293821
000310 c5 58 d6 3d 02 6e 4f be 16 16 3b be 9d d8 26 be
       0.1046615 -0.20256808 -0.18270144 -0.16293569
000320 ee 04 2a bd 82 be d9 3d ca e4 39 be 82 5a 2a be
       -0.041508608 0.106320396 -0.18153682 -0.16636088
000330 e0 1c 1a bf 33 e4 c2 3c 68 72 ae bd d9 97 95 bd
       -0.6020031 0.023790454 -0.08517915 -0.07304353
000340 30 95 a5 bd b0 a1 9b bd c3 0d 4e bd d5 7a 3d 3e
       -0.08085096 -0.07599199 -0.050306093 0.18503888
000350 d4 40 0e be 8d 5c 25 be 36 9b 17 be a9 86 52 bc
       -0.13891917 -0.16148587 -0.14805302 -0.012849488
000360 d9 b5 88 be cc 3a df be d0 4e ff bd 90 14 41 3e
       -0.2670124 -0.43599546 -0.12466204 0.188555
000370 1b 43 55 be 4f 0f 5a bf 5a b3 37 3e df 68 d6 3c
       -0.2082638 -0.8517961 0.17939511 0.026173053
000380 bd 53 8d bb 2e 0a 00 3e 46 d3 68 bd f0 bb 46 be
       -0.004312961 0.12503883 -0.05684211 -0.1940763
000390 f7 13 d2 bb 84 fa 8e be 85 50 10 be 35 16 78 3d
       -0.0064110714 -0.27925503 -0.14093216 0.060568053
0003a0 6e 33 73 be a5 62 ce 38 4b 9a 2e be 99 f9 d5 bd
       -0.23750088 9.8412194e-05 -0.17051046 -0.104479976
0003b0 67 f0 f9 bd 69 af 01 be 6b 8c f0 3d 75 c1 a6 bd
       -0.12204056 -0.1266457 0.117455326 -0.08142368
0003c0 ed aa 45 bd 98 2e b9 bc d8 de bb be d6 fd 92 3d
       -0.04825871 -0.022605225 -0.36693454 0.071773216
0003d0 f2 f1 31 3d 88 cd 54 be d1 a9 a0 be 8e 0d a2 bd
       0.043443628 -0.20781529 -0.3137956 -0.079127416
0003e0 06 02 9a be 82 8d 14 3e dd ad bd bd 5d 6f 11 3e
       -0.3007967 0.14507106 -0.092616774 0.14202638
0003f0 80 1f 0c bf 95 74 0b be f3 14 de bd c0 ba d7 bd
       -0.54735565 -0.13618691 -0.108438395 -0.105336666
