maddpg_critic_0.pth (torch, 559154 bytes, 11 tensors)

va1.0.weight f4 [128, 48]
0.22995691 1.8399688 -0.030517414 -0.071905926 0.5267839 -0.37025946 -0.13118477 -0.07582284
0.23791674 2.0083451 -0.11620471 0.21639456 0.24292517 -0.27849996 0.004094233 0.121427216
0.1979545 1.9718755 -0.09815205 -0.12704673 -0.12786949 -0.60408765 0.060151562 -0.22396678
-0.21596496 -0.39121976 0.13792604 0.02334839 -0.5946291 -0.31275654 0.106010936 -0.07782735
-0.16624784 -0.5578564 -0.23736936 -0.29969454 -0.095164515 -0.386945 -0.122305386 -0.26658952
-0.24827138 -0.6763329 -0.21536893 -0.46372724 0.15689899 -0.5088598 -0.17692044 -0.51369214
0.46687412 -1.3308662 -0.032303467 -0.0073725353 0.551903 -0.12086507 0.008833582 0.08460952
0.24342276 -1.6224477 -0.025884312 0.14341855 0.6784303 -0.03725031 0.0060176556 0.18995214
0.3370403 -1.3040739 -0.029392606 0.18681902 0.43631667 -0.081368074 0.011951445 0.230734
0.15803845 0.76688474 -0.09031154 0.54247457 -0.48889783 -0.23380058 0.0069156773 0.5684955
-0.009722785 0.777621 -0.031430706 0.23922087 -0.6699657 -0.070889905 -0.07115049 0.26955447
0.13964671 1.1293687 0.016306113 -0.37648034 -0.43163568 -0.10438756 0.05557691 -0.42970997
0.33668998 0.28213662 -0.0696805 0.4922879 0.11190073 -0.1948316 -0.18628581 0.4776042
0.13653435 0.04889201 0.040071342 -0.66337436 -0.25728792 0.035831083 -0.013475551 -0.5283922
0.20333318 0.14091356 -0.22719078 0.7443321 -0.21584564 -0.032040823 -0.23754713 0.76662546
0.73179054 -0.18438521 -0.20683603 -0.392921 -0.046309195 -0.1278803 -0.25166732 -0.28472906
0.50807035 -0.38843602 0.036561258 0.15888181 0.25882313 0.05648764 -0.051757827 0.20312
0.4622748 -0.24301364 -0.20714127 -0.041324347 0.30590835 0.008590774 -0.11545712 -0.04422908
0.4519771 -1.0564423 0.072891235 -0.043323535 -0.3252368 -0.07909902 0.06516284 -0.07502708
0.4642768 -0.8778995 -0.11185459 0.4499005 0.066096105 0.095894665 -0.05789296 0.5192436
0.3951439 -0.5947317 -0.034717325 1.1902957 0.4295144 0.25891364 -0.009155657 1.1797804
0.55463904 0.20278376 -0.03385177 0.29807645 0.37801605 0.07318327 0.027706886 0.46362922
0.49402884 0.2728386 -0.06427944 -0.3754722 -0.039108 -0.03981873 -0.057234462 -0.39638945
0.345793 0.057829667 -0.2579154 -0.28926262 -0.4363273 0.18543096 -0.2671589 -0.40320945
0.18716395 -0.6783731 0.20237258 -0.32851067 -0.7120756 -0.9871337 0.10087486 -0.25349054
0.16627261 -0.9384276 0.06616147 0.01758693 -0.087706566 -0.45060435 0.071653716 0.060576536
0.12792729 -1.3490613 -0.015710121 0.14813408 0.8795933 0.55174476 -0.033247963 0.1854313
0.3976165 0.01678361 -0.10848905 -0.34733367 0.782888 -0.87663496 -0.10399311 -0.27002358
0.50141776 0.09962997 0.27627045 0.8184739 0.0074676624 -0.54968876 0.27315852 0.8017984
0.2853435 -0.037543185 -0.033405613 -0.49298465 -0.9539283 0.5410642 -0.109989755 -0.55985034
0.2109174 1.5933874 -0.08615543 -0.113556616 0.04354338 0.26366812 0.04315509 -0.056627408
0.40910578 1.6613317 0.019702246 0.047466055 -0.30086264 0.14056495 0.18021193 0.07885372
00000000: d379 6b3e 1984 eb3f a8ff f9bc 6a43 93bd
00000010: 4fdb 063f a692 bdbe 4d55 06be 0149 9bbd
00000020: 72a0 733e ba88 0040 bcfc edbd 8996 5d3e
00000030: 60c1 783e 8c97 8ebe ea28 863b d5ae f83d
00000040: 96b4 4a3e 6b66 fc3f f103 c9bd 8a18 02be
00000050: 38f0 02be 7da5 1abf 7c61 763d 8c57 65be
00000060: eb25 5dbe f54d c8be 7c3c 0d3e 1f45 bf3c
00000070: 9d39 18bf a021 a0be 431c d93d f263 9fbd
00000080: e03c 2abe adcf 0ebf f410 73be 9071 99be
00000090: 9de5 c2bd a81d c6be 3f7b fabd 6c7e 88be
000000a0: da3a 7ebe 2724 2dbf ac89 5cbe a86d edbe
000000b0: 21aa 203e a344 02bf a22a 35be 5481 03bf
000000c0: 200a ef3e d359 aabf a450 04bd 4f95 f1bb
000000d0: 8449 0d3f 1b88 f7bd baba 103c c247 ad3d
000000e0: d143 793e 5eac cfbf 560b d4bc 50dc 123e
000000f0: 9cad 2d3f c893 18bd c12f c53b d082 423e
00000100: 8c90 ac3e e5eb a6bf c3c8 f0bc 7c4d 3f3e
00000110: e664 df3e 4ea4 a6bd fecf 433c 8945 6c3e
00000120: d5d4 213e 8f52 443f 42f5 b8bd 9ddf 0a3f
00000130: d150 fabe 6b69 6fbe e89c e23b ec88 113f
00000140: 514c 1fbc 2b12 473f 7cbd 00bd 51f6 743e
00000150: df82 2bbf ba2e 91bd 59b7 91bd 0b03 8a3e
00000160: 8cff 0e3e 278f 903f 6694 853c 08c2 c0be
00000170: 5aff dcbe 25c9 d5bd 9da4 633d f202 dcbe
00000180: a162 ac3e 3674 903e a6b4 8ebd 290d fc3e
00000190: 362c e53d ef81 47be b5c1 3ebe 8a88 f43e
000001a0: a9cf 0b3e fd42 483d d921 243d e7d2 29bf
000001b0: 3ebb 83be 9dc3 123d 8fc8 5cbc b644 07bf
000001c0: 9336 503e a54b 103e b3a4 68be 8c8c 3e3f
000001d0: a406 5dbe 3d3d 03bd 8e3f 73be 9141 443f
000001e0: a056 3b3f 7acf 3cbe d3cc 53be f12c c9be
000001f0: b6ae 3dbd 0ef3 02be 8ada 80be 02c8 91be
00000200: e610 023f 16e1 c6be 42c1 153d eab1 223e
00000210: 7784 843e 955f 673d 0400 54bd b0fe 4f3e
00000220: 48af ec3e 91d8 78be d71c 54be b843 29bd
00000230: 05a0 9c3e 51c0 0c3c c874 ecbd 8d29 35bd
00000240: 8b69 e73e 8039 87bf 0048 953d 0574 31bd
00000250: 7085 a6be abfe a1bd 1874 853d cca7 99bd
00000260: b0b5 ed3e 06be 60bf 0514 e5bd 5c59 e63e
00000270: 655d 873d 6c64 c43d 2b21 6dbd 26ed 043f
00000280: 4d50 ca3e 5640 18bf c133 0ebd 9c5b 983f
00000290: 50e9 db3e 5490 843e 9c01 16bc 0b03 973f
000002a0: d3fc 0d3f 8ca6 4f3e 27a8 0abd 7a9d 983e
000002b0: 528b c13e 1ce1 953d 8df9 e23c cf60 ed3e
000002c0: 59f1 fc3e 80b1 8b3e f0a4 83bd e43d c0be
000002d0: b62f 20bd f718 23bd af6e 6abd 8ff3 cabe
000002e0: c80b b13e cdde 6c3d 7d0d 84be 3b1a 94be
000002f0: 4b66 dfbe 9de1 3d3e 0dc9 88be 7871 cebe
00000300: e8a7 3f3e dca9 2dbf c23a 4f3e 8d32 a8be
00000310: 964a 36bf cbb4 7cbf 7b97 ce3d 83c9 81be
00000320: 5e43 2a3e cb3c 70bf aa7f 873d 7712 903c
00000330: 809f b3bd 9db5 e6be 2fbf 923d 1a1f 783d
00000340: 5fff 023e 0aae acbf 83b2 80bc 76b0 173e
00000350: 072d 613f 253f 0d3f 042f 08bd b4e1 3d3e
00000360: 6494 cb3e c87d 893c 822f debd b8d5 b1be
00000370: 596b 483f 266b 60bf 57fa d4bd 8840 8abe
00000380: ea5c 003f cc0a cc3d 5273 8d3e 8187 513f
00000390: 4bb3 f43b 67b8 0cbf 6fdb 8b3e a942 4d3f
000003a0: 8b18 923e e2c6 19bd 53d4 08bd 7c68 fcbe
000003b0: a534 74bf 2f83 0a3f 4f42 e1bd 5a52 0fbf
000003c0: bbfa 573e 1ef4 cb3f 4272 b0bd 5f90 e8bd
000003d0: 8b5a 323d 82ff 863e 64c3 303d 24f2 67bd
000003e0: 5076 d13e 84a6 d43f 9b66 a13c c46b 423d
000003f0: ab0a 9abe 42f0 0f3e 7a89 383e 0f7e a13d

va1.0.bias f4 [128]
-0.30862978 -0.23836084 -0.408327 0.15013763 -0.023197833 -0.6519379 -0.18565719 -0.16814075
-0.68160677 -0.434664 -0.22707935 -1.1152227 -0.32945943 -0.3975817 -0.29562533 0.53929895
-0.1922655 -0.5527856 -0.08745835 0.033122025 -0.07402055 -0.9564448 -0.67517924 0.023000859
-0.8049778 -0.69692814 -0.6060961 -0.28028598 0.0004183666 -0.49360588 0.13557696 -0.4753942
-1.0760701 -0.5795744 -0.6940535 -0.94891256 -0.34902182 -0.15876317 -0.26203504 -0.3478634
-0.2265902 -0.5973521 -0.37039092 -0.21412098 -0.748622 -0.40034854 0.04160699 -0.38811883
-0.16219306 0.036050335 -0.30665806 -0.27082136 -0.42205197 -0.73572385 -0.1280486 -0.5016667
0.084670395 -0.44707555 0.76631385 -0.58893657 -0.18438219 -0.32115808 -0.49114868 0.040751357
1.1066648 -0.29197776 -0.63420236 -0.25251693 -0.6189186 -0.664154 -0.7424362 -1.2075702
-0.20388745 -0.11550032 -0.25049406 -0.076601274 -0.37074062 0.1258896 -0.11312205 -0.53522694
-0.3970596 -0.26459223 -0.361769 -0.112589136 -0.023214694 -0.82634234 -0.37234354 -0.12149712
-0.5322891 0.60335255 -0.16994047 -0.42212787 0.11961957 -0.26194957 -0.42133412 -0.6018874
-0.31311032 -0.8703804 -0.0974679 -0.63684595 0.24246317 -0.16805777 -0.19592525 -0.20323887
0.106183834 -0.043085072 -0.045975145 0.20850118 -0.91750383 0.55807793 -0.7684435 -0.40377423
-0.48680696 -0.8419014 -0.28135246 0.124451295 0.1620964 -0.26896113 0.044041958 -0.65604573
-0.53081506 -0.33606842 0.73581123 -0.3602138 0.4326131 -0.47480452 -0.22494361 -0.44620734
00000000: b904 9ebe dd14 74be 3d10 d1be aebd 193e
00000010: 6209 bebc 67e5 26bf eb1c 3ebe 172d 2cbe
00000020: c87d 2ebf 488c debe 7d87 68be 9ebf 8ebf
00000030: e8ae a8be d48f cbbe 345c 97be 7f0f 0a3f
00000040: 3fe1 44be 5b83 0dbf 5d1d b3bd f6aa 073d
00000050: 1698 97bd 91d9 74bf 8cd8 2cbf 4c6c bc3c
00000060: 0613 4ebf e269 32bf 1d29 1bbf a581 8fbe
00000070: 3758 db39 e9b9 fcbe b0d4 0a3e de66 f3be
00000080: aabc 89bf fd5e 14bf 7dad 31bf efeb 72bf
00000090: fdb2 b2be d092 22be 7529 86be 271b b2be
000000a0: 4307 68be 11ec 18bf e1a3 bdbe 8842 5bbe
000000b0: b1a5 3fbf 7cfa ccbe 176c 2a3d 83b7 c6be
000000c0: f015 26be 84a9 133d 4902 9dbe 19a9 8abe
000000d0: 3217 d8be 6658 3cbf 2c1f 03be 3b6d 00bf
000000e0: ac67 ad3d 16e7 e4be 252d 443f 8cc4 16bf
000000f0: afce 3cbe d56e a4be d777 fbbe e5ea 263d
00000100: 31a7 8d3f 1c7e 95be 165b 22bf e649 81be
00000110: 7371 1ebf ff05 2abf 4c10 3ebf a991 9abf
00000120: dfc7 50be 6f8b ecbd c240 80be 21e1 9cbd
00000130: b7d1 bdbe 34e9 003e 89ac e7bd a204 09bf
00000140: 654b cbbe a278 87be c939 b9be 2295 e6bd
00000150: be2c bebc 2c8b 53bf d0a3 bebe 7bd3 f8bd
00000160: 1944 08bf 5075 1a3f e004 2ebe 2521 d8be
00000170: 1bfb f43d 411e 86be 1bb9 d7be 4b15 1abf
00000180: ff4f a0be 40d1 5ebf 409d c7bd 5608 23bf
00000190: 4448 783e 5617 2cbe a1a0 48be da1d 50be
000001a0: e976 d93d f979 30bd 6f50 3cbd 5581 553e
000001b0: 88e1 6abf 32de 0e3f b7b8 44bf 7fbb cebe
000001c0: c33e f9be da86 57bf 6e0d 90be 52e0 fe3d
000001d0: 99fc 253e 46b5 89be 5765 343d 9df2 27bf
000001e0: 7fe3 07bf 2911 acbe 205e 3c3f f16d b8be
000001f0: 777f dd3e 9419 f3be 9e57 66be 4a75 e4be

va2.0.weight f4 [128, 2]
-0.037672203 0.08590925 -0.008182979 0.047931217 -0.3511114 0.34142187 1.115471 0.22271909
-0.055789955 -0.31990954 -0.058031373 0.044436697 0.006304315 0.061858833 -0.3708079 0.24185571
0.61890966 0.575712 0.32533085 -0.56954116 -0.037314184 0.062876455 0.069190316 -0.007407859
-0.27173585 0.36382896 0.05638003 0.024946803 0.07316738 0.075097814 1.3716719 -0.14869608
0.91322064 -0.5823354 0.04353606 0.005732593 -0.038069487 -0.06349383 0.059247095 -0.04715126
0.5673001 -0.37147716 0.14218503 -0.019167397 -0.048266254 -0.064310275 0.023118315 0.029843392
0.07681928 -0.054895744 -0.01908737 -0.036745097 0.19286987 0.030640747 0.016026719 -0.03069676
0.08077588 0.025093095 -0.41752383 -0.34915075 0.1390758 -0.14423521 0.065708265 -0.06282174
0.045475576 0.029723043 1.0518211 0.37964627 -0.8406115 -0.46727258 0.081787415 0.045982126
0.039560042 -0.076968946 -0.0021620912 -0.0061580758 0.4504722 -0.48697048 0.088054195 -0.08639132
0.0025344165 0.0056000515 0.13368401 0.14817148 -0.0563209 0.60547465 0.046287924 -0.012293066
-0.21442035 0.60715735 0.032710537 -0.07174282 -0.026623731 0.01939032 0.06021422 -0.06811705
-0.2689162 -0.056298666 -0.04689158 -0.0059477314 -0.05666688 -0.0127759 0.10496027 -0.11255636
-0.0062137307 -0.00997618 0.042083796 0.012929926 1.2362851 -0.48795056 0.05162793 -0.07404907
-0.06768466 -0.084051706 -0.049090594 0.034206424 -0.005407472 -0.004826794 0.027219772 -0.087456405
0.41008306 -0.5476053 -0.04330087 -0.09899162 0.47430012 -0.6185385 0.071316786 0.020112317
0.059489887 0.0053345477 0.5170408 -0.6558491 -0.3346309 -0.16403396 -0.052597065 -0.027614994
0.64725345 -0.7644266 -0.011511653 -0.08757003 0.07511196 0.051309675 0.03138539 0.0043913433
-0.3871002 -0.39439872 -0.52524686 -0.6205219 0.021500098 -0.055874243 0.20988145 0.17387614
-0.022709364 0.034548413 -1.1739187 0.50202304 0.013641302 0.005513998 0.078764975 -0.06347484
-0.07790967 -0.015079616 -0.86279416 0.29832423 1.5968039 0.042392574 0.21969368 0.016616814
1.1252865 -0.23238829 -0.3368255 0.5501422 0.32120243 0.13540685 -0.04581397 -0.08729319
-0.07612861 -0.074459516 -0.0023419529 -0.018288266 -0.08177895 -0.06785457 -0.025225025 -0.014030106
1.2936106 0.7969245 -0.40707994 0.5817068 0.07896496 -0.059581134 0.29094583 0.15146708
0.06388007 -0.18867132 0.10022464 -0.12548558 1.571666 0.11578296 -0.71583295 -0.6924942
-0.54030305 0.44377518 0.052925713 -0.083858795 1.4962722 0.06418278 0.22330298 0.09231551
-0.021692831 0.105394 -0.17366669 -0.7973936 1.1366687 0.8008934 -0.51052564 -0.38243225
1.1510224 -0.49102512 -0.7878119 -0.2435896 0.6822677 -0.3854288 0.010022757 -0.009968416
-0.04668284 0.039118595 0.49963892 -0.03562584 -0.040295746 0.006487801 0.18783389 0.54394907
0.27654937 -0.0101538785 0.0021043816 0.02001164 1.6920944 -0.18404847 -0.024336064 0.036464978
0.05394276 0.06359647 -0.9464172 -0.028969614 -0.00019012258 -0.058124002 -0.3507427 0.29442972
-0.0773667 0.034600824 0.020834846 0.03791345 -0.3289965 0.4462938 0.38738415 -0.04639455
00000000: 2b4e 1abd 30f1 af3d e711 06bc 8653 443d
00000010: e0c4 b3be d9ce ae3e c1c7 8e3f 7910 643e
00000020: 0284 64bd 2fcb a3be 4eb2 6dbd 4103 363d
00000030: 6d94 ce3b b05f 7d3d 88da bdbe 06a9 773e
00000040: dd70 1e3f dd61 133f c491 a63e 73cd 11bf
00000050: c2d6 18bd 5fc5 803d a7b3 8d3d a0bd f2bb
00000060: f620 8bbe ca47 ba3e bfee 663d 3d5d cc3c
00000070: c8d8 953d e2cc 993d f292 af3f c943 18be
00000080: d4c8 693f ef13 15bf de52 323d 7ad8 bb3b
00000090: c0ee 1bbd 0e09 82bd 15ad 723d ae21 41bd
000000a0: 943a 113f 4132 bebe f498 113e f204 9dbc
000000b0: d6b2 45bd 1bb5 83bd 9f62 bd3c 217a f43c
000000c0: 6d53 9d3d 5cda 60bd 1e5d 9cbc 0782 16bd
000000d0: ae7f 453e 4e02 fb3c 774a 833c c677 fbbc
000000e0: d36d a53d 0990 cd3c afc5 d5be e3c3 b2be
000000f0: e369 0e3e 65b2 13be 0e92 863d afa8 80bd
00000100: 9944 3a3d bd7d f33c 13a2 863f ff60 c23e
00000110: 5132 57bf 5a3e efbe 2980 a73d c157 3c3d
00000120: b609 223d e5a1 9dbd dfb1 0dbb afc9 c9bb
00000130: 4ba4 e63e 3254 f9be c255 b43d efed b0bd
00000140: 7418 263b a380 b73b 76e4 083e 44ba 173e
00000150: beb0 66bd 6300 1b3f 6898 3d3d db68 49bc
00000160: 0291 5bbe aa6e 1b3f 7cfb 053d e6ed 92bd
00000170: 031a dabc 73d8 9e3c 30a3 763d f480 8bbd
00000180: 62af 89be 6e99 66bd 6311 40bd 30e5 c2bb
00000190: 881b 68bd 0252 51bc 69f5 d63d f383 e6bd
000001a0: 8d9c cbbb 2273 23bc 0f60 2c3d 0ad8 533c
000001b0: 973e 9e3f a8d4 f9be cf77 533d 0aa7 97bd
000001c0: 419e 8abd 4d23 acbd 3813 49bd 091c 0c3d
000001d0: 2a31 b1bb 152a 9ebb 00fc de3c 581c b3bd
000001e0: 68f6 d13e dc2f 0cbf 415c 31bd 1ebc cabd
000001f0: 77d7 f23e 8a58 1ebf 890e 923d 96c2 a43c
00000200: abab 733d 6ecd ae3b c95c 043f bae5 27bf
00000210: be54 abbe 85f8 27be 0570 57bd d738 e2bc
00000220: 67b2 253f 76b1 43bf 5f9b 3cbc ea57 b3bd
00000230: 4dd4 993d 182a 523d f78d 003d 42e5 8f3b
00000240: ff31 c6be a1ee c9be 9476 06bf 86da 1ebf
00000250: f920 b03c 64dc 64bd 2aeb 563e 960c 323e
00000260: fd08 babc a382 0d3d f842 96bf 9584 003f
00000270: c47f 5f3c c5ae b43b 884f a13d 19ff 81bd
00000280: 1b8f 9fbd 7e10 77bc 14e0 5cbf f4bd 983e
00000290: 1264 cc3f d6a3 2d3d 61f7 603e fc1f 883c
000002a0: 6309 903f 32f7 6dbe 6474 acbe 1fd6 0c3f
000002b0: a574 a43e 18a8 0a3e 6ea7 3bbd c6c6 b2bd
000002c0: 51e9 9bbd 3b7e 98bd 737b 19bb 46d1 95bc
000002d0: b97b a7bd 56f7 8abd b6a4 cebc 88de 65bc
000002e0: 0895 a53f 3e03 4c3f c86c d0be bdea 143f
000002f0: 62b8 a13d 590b 74bd daf6 943e 301a 1b3e
00000300: 8ed3 823d 0e33 41be 9342 cd3d 4b7f 00be
00000310: 5a2c c93f 9e1f ed3d d440 37bf 4d47 31bf
00000320: 4d51 0abf 8036 e33e a2c8 583d 29be abbd
00000330: d985 bf3f 4372 833d 89a9 643e ea0f bd3d
00000340: 2ab5 b1bc cfd8 d73d aed5 31be fd21 4cbf
00000350: 5c7e 913f 5a07 4d3f cfb1 02bf 29ce c3be
00000360: b454 933f a567 fbbe 0aae 49bf 8d6f 79be
00000370: 19a9 2e3f ec56 c5be 7d36 243c 9152 23bc
00000380: 8136 3fbd d23a 203d acd0 ff3e 67ec 11bd
00000390: 270d 25bd 9f97 d43b 8757 403e 3f40 0b3f
000003a0: e197 8d3e 745c 26bc aae9 093b 73ef a33c
000003b0: 8d96 d83f 3477 3cbe 6d5c c7bc 4d5c 153d
000003c0: 15f3 5c3d de3e 823d 6648 72bf af51 edbc
000003d0: a45b 47b9 6f13 6ebd 8c94 b3be 7ebf 963e
000003e0: 6f72 9ebd 98b9 0d3d d7ad aa3c 224b 1b3d
000003f0: 3b72 a8be 9f80 e43e 3757 c63e 3608 3ebd

va2.0.bias f4 [128]
-0.13209927 -0.41810954 -0.14785697 -0.09368171 0.3009428 -0.66258067 -0.5188569 0.18440059
0.079700835 -0.26786134 -0.17880775 -0.07783004 -0.175594 -0.27369344 -0.34160542 -0.39235148
0.26979616 -0.34270522 -0.37901276 0.2465242 -0.22593436 0.26732093 -0.2983921 -0.41745508
-0.44577196 -0.47900254 0.20945872 -0.3458078 -0.3326277 0.0646147 0.35003898 -0.6471388
-0.07794427 -0.13721322 -0.46258962 -0.402006 -0.5698235 -0.5102359 -0.081113264 -0.32920465
-0.64295447 0.21103993 -0.28693697 -0.21096183 -0.17753923 -0.2512866 -0.46613368 -0.65330887
0.60950255 -0.652986 -0.53335166 0.29238287 -0.44532782 -0.23741032 0.19559915 -0.69828147
-0.64202243 -0.5735719 -0.10659317 -0.25591272 0.02535516 -0.15064701 0.031758133 -0.6118578
-0.33691937 -0.08123906 -0.31841025 -0.46060807 -0.29287916 -0.36114833 0.26590443 -0.56436384
0.019704038 0.12853768 -0.61205506 -0.044674702 -0.2595155 -0.7167603 -0.21587919 -0.15806669
-0.1809735 -0.45991272 -0.41917774 0.08767239 -0.039007187 -0.2067533 0.05243012 -0.2378667
-0.5448929 -0.46576717 -0.48421788 -0.5708143 -0.64153576 -0.029744914 -0.6358231 0.13838312
0.12377667 0.32771775 -0.37207338 0.10444828 -0.30364138 -0.61321276 -0.3691044 0.20946375
-0.13101327 -0.38777104 -0.50933266 0.11926072 0.13326113 -0.1465715 -0.3120265 -0.021533385
-0.40169546 0.4790031 -0.1845978 -0.19055678 0.25432023 -0.3341337 -0.6154765 -0.09641066
-0.4001346 0.15292928 -0.06719198 0.12438033 -0.36567304 -0.060752887 -0.21540271 0.39055002
00000000: 0845 07be 7412 d6be d167 17be 32dc bfbd
00000010: 2d15 9a3e e39e 29bf ced3 04bf 82d3 3c3e
00000020: 313a a33d 1f25 89be 6119 37be 5b65 9fbd
00000030: eace 33be 8c21 8cbe e8e6 aebe 4be2 c8be
00000040: b922 8a3e 0f77 afbe f60d c2be d770 7c3e
00000050: 565b 67be 4ade 883e d9c6 98be acbc d5be
00000060: 393c e4be d23f f5be 597c 563e b80d b1be
00000070: 2e4e aabe b654 843d 4f38 b33e e3aa 25bf
00000080: 3fa1 9fbd 9f81 0cbe 8cd8 ecbe bbd3 cdbe
00000090: f4df 11bf d29e 02bf b61e a6bd 838d a8be
000000a0: aa98 24bf da1a 583e 67e9 92be 6106 58be
000000b0: d8cc 35be a3a8 80be 13a9 eebe 403f 27bf
000000c0: 5c08 1c3f 172a 27bf bc89 08bf 35b3 953e
000000d0: 0202 e4be b11b 73be 254b 483e 93c2 32bf
000000e0: 955b 24bf 9cd5 12bf 854d dabd fe06 83be
000000f0: a0b5 cf3c 3643 1abe d114 023d b6a2 1cbf
00000100: b280 acbe aa60 a6bd ab06 a3be d2d4 ebbe
00000110: 42f4 95be 6fe8 b8be a024 883e 267a 10bf
00000120: 5d6a a13c 629f 033e a4af 1cbf d2fc 36bd
00000130: 37df 84be 9a7d 37bf 6f0f 5dbe 3cdc 21be
00000140: 1e51 39be ae79 ebbe 779e d6be 958d b33d
00000150: 00c6 1fbd 23b7 53be f7c0 563d 5493 73be
00000160: 1a7e 0bbf 0979 eebe 68eb f7be e320 12bf
00000170: b03b 24bf 9bab f3bc 4dc5 22bf 4eb4 0d3e
00000180: 9f7e fd3d 9fca a73e 6780 bebe fbe8 d53d
00000190: e276 9bbe 83fb 1cbf 40fb bcbe aa7d 563e
000001a0: 5828 06be ed89 c6be a063 02bf f73e f43d
000001b0: 9b75 083e d716 16be f0c1 9fbe c866 b0bc
000001c0: 07ab cdbe e53f f53e 3507 3dbe 5121 43be
000001d0: 4336 823e 9313 abbe de8f 1dbf f472 c5bd
000001e0: 71de ccbe 7e99 1c3e f39b 89bd 1dbb fe3d
000001f0: 7f39 bbbe 05d8 78bd 8792 5cbe 2cf6 c73e

va3.0.weight f4 [128, 2]
0.062481984 -0.03403579 -0.06062979 0.018597096 0.030323982 0.028958624 -0.033687174 0.010374351
-1.390721 0.033139132 -0.080116026 0.08650704 0.021139247 0.044619065 -0.45666674 0.6893359
-0.48710847 0.55976486 0.61208206 -0.539168 0.064065814 -0.07503599 0.6967638 0.8544925
0.054972026 -0.07210454 -0.07022963 0.01522734 0.081963755 0.007685014 0.07340297 0.07994442
-0.25889158 0.30374238 -0.012565471 -0.031106576 0.045836277 -0.032263592 0.048421912 -0.08797143
0.42285845 0.5414445 -0.49566364 0.91539276 -0.04328715 0.072614275 -0.06205903 -0.025515754
0.023036467 -0.088309 -0.72862726 -0.666572 -0.08781053 0.056792244 0.42363945 0.69574106
0.046475362 -0.07638495 -0.18188669 0.046334963 0.5495022 0.5471154 0.038368583 0.010811161
0.06318009 -0.004597754 -1.5881447 0.055735093 0.058944672 -0.005459513 0.061880887 -0.04451608
-0.023145648 0.031408366 0.047246754 0.08721922 -0.0414444 0.00014321499 -0.44314885 -0.39398494
0.08033858 0.0074629425 -0.1062693 0.08818585 0.042130753 0.12140332 0.010119058 -0.023020513
0.039946582 -0.085935935 0.8832326 0.13922915 -0.6468494 0.92880106 -0.014046585 -0.03186014
-0.65475726 0.5968144 -0.028873485 0.7878797 -0.14809655 0.123932496 -0.012346561 -0.022651656
-0.26037547 0.82614446 0.08105999 -0.041817985 0.08323502 -0.058366314 -0.10985279 0.1752401
-0.050639942 -0.08522141 0.14327407 0.05029151 -0.078532465 0.14234827 -0.08049594 -0.04279786
-0.30663377 0.08927584 -0.07535497 0.021472912 -0.07383267 -0.013678275 0.40015003 -0.20263289
0.34083322 -0.24845168 0.017550621 -0.027922297 -0.03936685 0.15679508 0.28050646 0.07558521
-0.08634651 -0.0059181866 -0.44026217 0.3148385 1.1197453 0.18841828 -0.27571726 0.049010307
-0.7817823 -0.3147497 0.56929165 0.09684938 0.02168835 0.6359355 -0.17307277 0.19835627
-0.013070705 -0.033933096 -0.003645279 0.04258463 -0.053027645 -0.061638173 0.4087197 0.43710896
-0.043754432 -0.017495515 -0.031898294 0.03245593 0.010504332 0.061882436 -0.14179482 0.30045092
-0.017341595 0.072606966 -0.021950586 9.819087e-05 0.4685481 0.39073366 0.5042442 0.85691106
0.01396539 0.05329411 -0.7901073 -0.58799 0.08521887 -0.06552608 0.009938416 0.022952657
-1.1369152 0.60711014 0.021684565 -0.044688366 -0.36800438 0.48861334 0.26649445 0.2385806
0.92371374 0.16929397 -0.07784508 0.06196815 -0.12229446 0.2055495 0.18753535 0.07725342
-0.84641033 -0.31454626 -0.0825254 -0.004183433 0.31175873 0.08110287 0.034795437 -0.040978
0.019663053 0.03938659 1.1297106 -0.09861819 1.1557403 0.14445066 0.8234093 -0.51263565
-0.3096453 0.23878598 -0.09426342 -0.69187194 -0.28541896 0.033026397 -0.69847023 -0.79304516
0.010054963 -0.022273503 -0.67656463 0.38201028 0.0024829234 -0.062034335 -0.39071023 0.18252194
0.8106672 -0.44608855 0.04403863 -0.057563998 -0.055393603 -0.007571755 0.13436046 0.32061878
-1.1262933 0.111032374 -0.26850036 0.035583735 -0.08640979 -0.07891093 1.0062001 -0.55046344
-0.2537673 0.107304566 -0.6600276 0.3702511 1.3190365 0.25057897 0.064063914 0.010851601
00000000: 1ced 7f3d 1d69 0bbd f156 78bd f058 983c
00000010: 006a f83c a33a ed3c 90fb 09bd 2ff9 293c
00000020: 2503 b2bf e6bc 073d df13 a4bd 9a2a b13d
00000030: 372c ad3c 7bc2 363d 39d0 e9be 5178 303f
00000040: 4866 f9be c04c 0f3f 69b1 1c3f ea06 0abf
00000050: f034 833d 78ac 99bd 1d5f 323f 05c0 5a3f
00000060: 592a 613d 8cab 93bd 8dd4 8fbd 187c 793c
00000070: 9ddc a73d 92d2 fb3b 4c54 963d e6b9 a33d
00000080: 708d 84be 1f84 9b3e 68df 4dbc 38d3 febc
00000090: d2be 3b3d d426 04bd 0e56 463d 5d2a b4bd
000000a0: e780 d83e 1b9c 0a3f a0c7 fdbe 2e57 6a3f
000000b0: de4d 31bd cbb6 943d 9c31 7ebd 6a06 d1bc
000000c0: f9b6 bc3c 59db b4bd 5187 3abf 76a4 2abf
000000d0: 02d6 b3bd fc9e 683d 45e7 d83e 161c 323f
000000e0: f35c 3e3d b66f 9cbd 8140 3abe bbc9 3d3d
000000f0: 2dac 0c3f c10f 0c3f 6028 1d3d 4c21 313c
00000100: 9064 813d c2a8 96bb 5348 cbbf 7b4a 643d
00000110: f86f 713d b7e5 b2bb d076 7d3d 7e56 36bd
00000120: f19b bdbc 0fa6 003d d085 413d fe9f b23d
00000130: 9ac1 29bd fb2b 1639 68e4 e2be 65b8 c9be
00000140: 8e88 a43d b38b f43b b8a3 d9bd c89a b43d
00000150: 4c91 2c3d 4ea2 f83d 68ca 253c 8495 bcbc
00000160: 079f 233d 2eff afbd 881b 623f 1692 0e3e
00000170: ec97 25bf e8c5 6d3f a623 66bc c77f 02bd
00000180: 2c9e 27bf d4c8 183f 1688 ecbc 7cb2 493f
00000190: 9fa6 17be 52d0 fd3d 3b49 4abc f78f b9bc
000001a0: ef4f 85be 347e 533f c802 a63d 5649 2bbd
000001b0: 1f77 aa3d 8411 6fbd 80fa e0bd 2472 333e
000001c0: d46b 4fbd 9088 aebd 70b6 123e 78fe 4d3d
000001d0: a1d5 a0bd bfc3 113e 0edb a4bd cf4c 2fbd
000001e0: 1aff 9cbe 40d6 b63d b553 9abd f6e7 af3c
000001f0: 9535 97bd d81a 60bc 77e0 cc3e ff7e 4fbe
00000200: b181 ae3e 1e6a 7ebe 52c6 8f3c 4dbd e4bc
00000210: 223f 21bd e48e 203e 8b9e 8f3e 6bcc 9a3d
00000220: 70d6 b0bd 59ed c1bb 0b6a e1be 8332 a13e
00000230: d053 8f3f b9f0 403e d02a 8dbe 08bf 483d
00000240: e322 48bf df26 a1be 19bd 113f f858 c63d
00000250: c4ab b13c abcc 223f fd39 31be e81d 4b3e
00000260: 8326 56bc 6efd 0abd a2e5 6ebb 396d 2e3d
00000270: 8433 59bd 4f78 7cbd b543 d13e bfcc df3e
00000280: d937 33bd c152 8fbc c9a7 02bd 82f0 043d
00000290: 5d1a 2c3c 7078 7d3d a932 11be b4d4 993e
000002a0: f60f 8ebc f6b2 943d b7d1 b3bc d2eb cd38
000002b0: 89e5 ef3e 3e0e c83e 2616 013f 865e 5b3f
000002c0: 17cf 643c ed4a 5a3d 7944 4abf 8386 16bf
000002d0: 3b87 ae3d 8a32 86bd bdd4 223c 3607 bc3c
000002e0: 7086 91bf 926b 1b3f d4a3 b13c 260b 37bd
000002f0: 126b bcbe 872b fa3e f671 883e 794e 743e
00000300: 8178 6c3f 665b 2d3e 3e6d 9fbd 51d2 7d3d
00000310: 8575 fabd 917b 523e 4409 403e 0b37 9e3d
00000320: 59ae 58bf 350c a1be 1403 a9bd 2e15 89bb
00000330: d79e 9f3e 4319 a63d a985 0e3d 8cd8 27bd
00000340: 6914 a13c d553 213d 5b9a 903f 55f8 c9bd
00000350: 4cef 933f e0ea 133e f4ca 523f 173c 03bf
00000360: d489 9ebe 5084 743e 2e0d c1bd 851e 31bf
00000370: 6f22 92be b046 073d f2ce 32bf 0205 4bbf
00000380: 92bd 243c ec76 b6bc 5733 2dbf da96 c33e
00000390: 8bb8 223b b717 7ebd 2c0b c8be 08e7 3a3e
000003a0: e387 4f3f b865 e4be da61 343d 3ac8 6bbd
000003b0: 67e4 62bd 7c1c f8bb ca95 093e 2528 a43e
000003c0: 612a 90bf f164 e33d e178 89be 40c0 113d
000003d0: 9ef7 b0bd 0e9c a1bd 2acb 803f 2ceb 0cbf
000003e0: caed 81be 7fc2 db3d 92f7 28bf 8d91 bd3e
000003f0: 30d6 a83f e34b 803e f133 833d eaca 313c

va3.0.bias f4 [128]
-0.39498305 -0.11298542 -0.55991584 -0.61186314 -0.329015 -0.19405344 -0.38291287 -0.3085832
-0.23671906 -0.11231854 -0.35236567 -0.46462765 -0.24351378 -0.32732412 -0.13786294 -0.17182536
0.060620323 -0.12690467 -0.6366669 -0.22456557 -0.23428679 -0.41542947 -0.47434306 -0.49810308
-0.20119354 0.39334303 -0.5819144 -0.6448922 -0.13271107 0.34620777 -0.39264527 -0.11283748
-0.07395887 -0.37971425 -0.3674507 -0.18330945 -0.056745537 -0.6311181 -0.14077216 0.031470906
-0.36466482 -0.033759266 0.2000434 -0.10251639 -0.22720286 -0.37096688 0.36947808 -0.546757
-0.5033112 -0.46255067 0.26010007 -0.39006487 -0.38727397 -0.29468554 -0.5358303 -0.16316058
-0.49865064 0.21824285 0.044653315 -0.47525233 0.4526329 -0.1348388 -0.18385474 0.2610104
-0.24895927 -0.48126593 0.1289619 0.39062855 -0.40851733 -0.0058801 -0.4391274 0.40565202
0.011746622 -0.023017509 -0.38331345 0.03860039 -0.04996232 -0.048839424 -0.11731098 -0.31283197
-0.0787513 -0.07679737 -0.5314526 0.37399703 -0.38257444 -0.025090354 0.048528895 -0.6841254
-0.6692336 0.28245464 -0.6776829 -0.5565919 0.35637566 -0.16704616 -0.3979569 0.1628343
-0.22639501 -0.20997012 0.24134338 0.29070166 -0.055381015 -0.5901094 0.004966695 -0.118024915
-0.5209992 -0.60375845 -0.40937963 -0.24993357 -0.16246735 -0.3062701 0.49686727 0.33594063
-0.13981526 -0.23294154 -0.5290662 0.54529554 -0.25821847 -0.65726244 -0.40831748 0.15352522
-0.29284543 0.50824565 -0.6973048 -0.31816885 0.5008959 0.19512567 -0.15255904 -0.6991201
00000000: 383b cabe e664 e7bd a556 0fbf 10a3 1cbf
00000010: a774 a8be f2b5 46be 280d c4be 9efe 9dbe
00000020: 7b66 72be 4307 e6bd 4669 b4be ade3 edbe
00000030: ad5b 79be 0797 a7be f12b 0dbe fdf2 2fbe
00000040: 044d 783d 4cf3 01be 9afc 22bf 84f4 65be
00000050: e0e8 6fbe 2cb3 d4be 18dd f2be 5e07 ffbe
00000060: ae05 4ebe 4264 c93e 58f8 14bf a817 25bf
00000070: 69e5 07be 2542 b13e cd08 c9be 5617 e7bd
00000080: bf77 97bd e869 c2be 8022 bcbe 79b5 3bbe
00000090: 026e 68bd f590 21bf 9426 10be a3e7 003d
000000a0: 59b5 babe 2847 0abd 2dd8 4c3e 1df4 d1bd
000000b0: dea7 68be 5fef bdbe 3b2c bd3e 44f8 0bbf
000000c0: 01d9 00bf 71d3 ecbe d62b 853e 95b6 c7be
000000d0: c648 c6be 06e1 96be 2d2c 09bf 9113 27be
000000e0: 234f ffbe 0e7b 5f3e 65e6 363d 4654 f3be
000000f0: 80bf e73e 2f13 0abe 6b44 3cbe 28a3 853e
00000100: 2eef 7ebe 7d68 f6be 970e 043e 7700 c83e
00000110: 2f29 d1be dbad c0bb 4ed5 e0be 9fb1 cf3e
00000120: e774 403c 378f bcbc a941 c4be 711b 1e3d
00000130: 4aa5 4cbd d90b 48bd bd40 f0bd 832b a0be
00000140: 5d48 a1bd f147 9dbd 470d 08bf 8a7c bf3e
00000150: cce0 c3be 498a cdbc 3cc6 463d d822 2fbf
00000160: e552 2bbf e59d 903e a07c 2dbf cf7c 0ebf
00000170: df76 b63e 260e 2bbe 02c1 cbbe 09be 263e
00000180: 18d4 67be 6802 57be b822 773e d9d6 943e
00000190: 34d7 62bd 6911 17bf a8bf a23b 0cb7 f1bd
000001a0: 3460 05bf ea8f 1abf 359a d1be 96ee 7fbe
000001b0: d75d 26be 6fcf 9cbe 6365 fe3e 6900 ac3e
000001c0: bb2b 0fbe 3a88 6ebe e270 07bf 7d98 0b3f
000001d0: 3635 84be 5a42 28bf fd0e d1be b735 1d3e
000001e0: d6ef 95be 631c 023f 9182 32bf 07e7 a2be
000001f0: b73a 003f 06cf 473e 7038 1cbe 89f9 32bf

v2.0.weight f4 [256, 384]
-0.031573683 0.02042114 0.014503491 -0.03610207 0.030146006 0.01700587 0.034460004 -0.09382716
-0.024476714 -0.02189585 -0.06701794 -0.016806502 0.050003145 -0.012029533 -0.036471896 -0.042650193
-0.054759864 -0.033562057 -0.043768723 0.020686163 -0.087165035 -0.075214095 0.002620048 -0.028935323
-0.034760788 -0.034523405 0.04397579 0.004647678 -0.008490091 0.02162577 -0.08559608 -0.06331288
-0.047457792 -0.047492113 -0.027841445 -0.06168644 0.035970796 0.026014706 -0.048823074 -0.05285701
0.0025504024 -0.020714795 -0.03108637 -0.06137832 -0.070435844 -0.04958155 -0.053974807 -0.047682326
0.009700523 -0.008554902 -0.034930352 -0.053311877 0.0103707295 -0.06405338 -0.011751466 -0.0078632785
-0.060326867 -0.009880642 -0.02756446 -0.03986448 -0.07516624 -0.009777213 -0.05449264 -0.030447954
0.0049493634 -0.032226015 -0.023378097 -0.056206018 -0.018920634 0.026508838 -0.051818445 -0.028019454
0.0012208658 0.02764282 0.015179779 -0.01565569 -0.0772253 -0.025635999 0.0054721176 0.03759718
-0.004056367 0.009364881 -0.04013667 0.038932294 -0.07709221 -0.08002302 0.0220172 -0.025245687
-0.057431247 -0.08262514 -0.0037663304 -0.048511174 0.017622588 -0.012676405 0.005213232 -0.029227925
-0.03015573 -0.022334073 -0.050680235 -0.010867028 -0.059025753 -0.0013495408 -0.011994529 0.009103833
-0.059840333 -0.018609552 -0.008561652 -0.03795481 0.033088036 -0.011983563 -0.033524513 -0.076452345
-0.021614928 -0.073661596 0.05672717 -0.014579982 -0.08235557 -0.038097538 0.009223548 0.013080693
-0.024508523 -0.04988143 -0.025078371 -0.065516815 0.013119633 -0.026045742 -0.0022995407 -0.014018813
-0.0038162246 -0.03324207 0.010273501 -0.03434743 -0.059859388 0.05334065 -0.029398099 -0.033623494
-0.021662503 -0.024771253 0.00035122037 -0.007348912 -0.03897186 -0.022767223 0.053712904 -6.7216526e-05
-0.061838392 -0.039175592 -0.028716758 0.015311375 -0.043331776 -0.009291267 -0.011134639 0.01394362
0.0068473816 -0.05208592 0.033690862 0.0059595928 0.054341942 0.030097496 -0.015282059 -0.057111755
-0.018371329 0.013146 -0.034303743 0.020885415 0.04054039 0.055328697 0.032969978 -0.0057466775
-0.037262566 0.008252692 0.008773125 0.0029433519 -0.075506955 0.039150037 -0.037247732 0.039729975
-0.008576204 0.04457064 0.01234515 -0.03915137 -0.059611343 -0.060206205 0.0248357 0.04484959
0.031415425 -0.028691754 -6.648898e-05 0.05999761 -0.027132956 0.04411159 -0.039862886 0.051961616
-0.029547848 -0.06711766 -0.05968556 0.040737577 0.03714334 -0.06136842 -0.07334656 0.0154117495
-0.052453812 0.04453264 0.008955494 -0.004062676 -0.045353144 -0.0031261363 0.035823777 -0.05297432
-0.0191243 -0.059490304 0.012884523 -0.06443432 -0.07162066 0.005641807 0.027698558 0.05328136
-0.02392821 -0.011754878 -0.044504806 0.0038506836 -0.021235725 -0.030078255 -0.015604459 -0.0071040597
-0.0076294695 0.033166546 0.045050338 0.040523138 -0.042814445 -0.03053648 -0.05787673 -0.0078119235
-0.028240735 0.020668995 -0.0027823832 -0.055696316 0.030340591 0.056227442 0.02562555 0.01892397
0.007982232 0.03353677 0.02525489 0.012553752 -0.06732853 0.03447304 -0.075081885 0.0088644475
-0.050843216 0.03967152 -0.023807585 -0.028962465 0.02160196 -0.06207098 0.010875143 -0.07580173
00000000: 6853 01bd 3c4a a73c 0da0 6d3c c4df 13bd
00000010: c2f4 f63c e54f 8b3c ef25 0d3d 7428 c0bd
00000020: 6483 c8bc ed5e b3bc b440 89bd caad 89bc
00000030: 19d0 4c3d 8517 45bc 8e63 15bd f8b1 2ebd
00000040: e14b 60bd 5e78 09bd d546 33bd 0776 a93c
00000050: 9583 b2bd d909 9abd 1cb5 2b3b c509 edbc
00000060: 5461 0ebd 6a68 0dbd f51f 343d 8d4b 983b
00000070: 061a 0bbc 8728 b13c ff4c afbd 2faa 81bd
00000080: 1a63 42bd 1787 42bd be13 e4bc ecaa 7cbd
00000090: 1d56 133d cb1c d53c b4fa 47bd 9880 58bd
000000a0: a724 273b 13b2 a9bc d8a8 febc d567 7bbd
000000b0: ab40 90bd 0616 4bbd b014 5dbd 8b4e 43bd
000000c0: f1ee 1e3c dc29 0cbc 2113 0fbd 8e5d 5abd
000000d0: fee9 293c 6b2e 83bd 3989 40bc fbd4 00bc
000000e0: 4e19 77bd 6be2 21bc ddce e1bc f048 23bd
000000f0: c2f0 99bd 9b30 20bc ad33 5fbd fd6d f9bc
00000100: 452e a23b 6dff 03bd 6c83 bfbc 4838 66bd
00000110: 72ff 9abc 1029 d93c 943f 54bd 0e89 e5bc
00000120: 7505 a03a 3273 e23c 9cb4 783c 5d40 80bc
00000130: 4c28 9ebd 9602 d2bc 734f b33b 80ff 193d
00000140: 46eb 84bb 286f 193c 5966 24bd 7877 1f3d
00000150: 85e2 9dbd 1ce3 a3bd 6a5d b43c 0bd0 cebc
00000160: 073d 6bbd 5f37 a9bd 8ad4 76bb a7b3 46bd
00000170: 3f5d 903c b2b0 4fbc c2d3 aa3b 676f efbc
00000180: 2609 f7bc f2f5 b6bc 1496 4fbd 9e0b 32bc
00000190: fdc4 71bd 13e3 b0ba b384 44bc 3e28 153c
000001a0: 231b 75bd 0f73 98bc 2c46 0cbc 8176 1bbd
000001b0: 5287 073d b556 44bc 0051 09bd 0c93 9cbd
000001c0: ca11 b1bc e4db 96bd c05a 683d e0e0 6ebc
000001d0: 09aa a8bd 2a0c 1cbd 5d1e 173c 6750 563c
000001e0: 19c6 c8bc 7850 4cbd 2871 cdbc ae2d 86bd
000001f0: bbf3 563c e15d d5bc e4b3 16bb 2aaf 65bc
00000200: a019 7abb d628 08bd 3052 283c e4af 0cbd
00000210: 1e2f 75bd ba7b 5a3d 48d4 f0bc cab8 09bd
00000220: 9075 b1bc 15ed cabc 0024 b839 24cf f0bb
00000230: f5a0 1fbd 5482 babc 1002 5c3d 99f6 8cb8
00000240: 414a 7dbd 9676 20bd 683f ebbc 90dc 7a3c
00000250: a97c 31bd 663a 18bc 106e 36bc c873 643c
00000260: 0060 e03b 0c58 55bd 6eff 093d b048 c33b
00000270: a895 5e3d 068f f63c 9a61 7abc 04ee 69bd
00000280: 787f 96bc 5262 573c 1582 0cbd e417 ab3c
00000290: ae0d 263d 58a0 623d 870b 073d a04e bcbb
000002a0: a2a0 18bd 4d36 073c 27bd 0f3c 40e5 403b
000002b0: 64a3 9abd ca5b 203d 1491 18bd e6bb 223d
000002c0: 3583 0cbc b48f 363d 5043 4a3c 305d 20bd
000002d0: 062b 74bd c89a 76bd 3d74 cb3c 34b4 373d
000002e0: 76ad 003d f80a ebbc 0070 8bb8 0ec0 753d
000002f0: ef45 debc 5bae 343d 4447 23bd b4d5 543d
00000300: 540e f2bc fc74 89bd d978 74bd 72dc 263d
00000310: 9d23 183d 745d 7bbd b936 96bd 9081 7c3c
00000320: cfd9 56bd dc67 363d 10ba 123c 3220 85bb
00000330: 38c4 39bd dddf 4cbb f4bb 123d 9afb 58bd
00000340: 90aa 9cbc 1bac 73bd 9b19 533c 24f6 83bd
00000350: daad 92bd e8de b83b 16e8 e23c 8e3d 5a3d
00000360: 1805 c4bc 8897 40bc ac4a 36bd c05b 7c3b
00000370: 8bf6 adbc ac66 f6bc d8a9 7fbc 2cc9 e8bb
00000380: a100 fabb a5d9 073d b486 383d 97fb 253d
00000390: 335e 2fbd a427 fabc 2610 6dbd 2afb ffbb
000003a0: 1d59 e7bc 0652 a93c a558 36bb d221 64bd
000003b0: d58c f83c bf4e 663d acec d13c 7106 9b3c
000003c0: e8c7 023c da5d 093d 58e3 ce3c 41ae 4d3c
000003d0: 8ae3 89bd 9a33 0d3d 88c4 99bd 303c 113c
000003e0: fa40 50bd 9b7e 223d 2008 c3bc b142 edbc
000003f0: 98f6 b03c 243e 7ebd a82d 323c f03d 9bbd

v2.0.bias f4 [256]
-0.05446053 0.113052666 -0.07895161 -0.27307743 -0.048432928 -0.07831983 -0.4578311 -0.019778945
0.058085665 -0.13433865 -0.035637654 -0.027787583 0.12183418 0.0019832382 -0.22173953 -0.15076981
-0.09110699 0.065357044 -0.19582663 0.14087996 0.09198021 -0.1704394 -0.012324714 0.40601423
-0.06069286 0.019558309 -0.39456132 -0.2287939 -0.2302655 -0.25231555 -0.70686436 0.13398921
-0.15168756 -0.13299745 -0.10329917 -0.031660363 -0.28139162 0.46123105 -0.20182364 -0.20138937
-0.65960646 0.16487719 -0.04827928 -0.13665642 -0.33469814 -0.08117148 0.06972786 -0.18139026
0.19822353 -0.12859479 -0.49285415 -0.014822292 -0.3322154 0.040400207 0.111427 0.12240023
-0.10546077 0.02256819 -0.6141493 -0.093182586 -0.1627441 -0.08188091 0.0061428016 0.18590987
0.11542625 -0.32461575 -0.10253334 -0.083757736 0.07902518 0.18946904 0.10087487 -0.07973613
-0.14132942 -0.22207849 -0.35038236 -0.0024850555 -0.45598707 0.003963995 -0.047124244 0.22456393
-0.03952975 -0.073719166 0.12952198 -0.042790644 0.09254502 -0.7299137 -0.041682955 -0.22465229
0.25650516 -0.08038349 -0.14640306 -0.27772835 -0.29892808 -0.2692914 -0.2953532 0.0387555
-0.012806109 -0.012903321 -1.0017469 0.0012172187 0.37690157 -0.1986109 0.04685202 0.006780376
-0.116530985 -0.08772131 0.07551676 -0.09178754 -0.2106931 -0.25871742 0.08934258 -0.17324807
-0.35888842 -0.1829992 0.12049091 -0.20991005 0.1564686 -0.0672918 -0.14959575 0.18763441
-0.18836765 -0.10395937 0.20074476 0.19758876 -0.16017734 -0.10164692 0.09266806 0.016024135
-0.19815579 0.12528276 0.17686485 0.037121728 0.2455421 -0.05325777 -0.03808961 0.06401506
0.08305146 -0.2986595 -0.45855883 -0.026990388 -0.09260615 0.03530109 0.2407774 -0.15372767
-0.5757729 -0.4514065 -0.063185796 -0.032119203 -0.07487826 -0.4325054 -0.17998293 0.23622419
-0.06556594 0.1308507 0.26537037 -1.3453614 0.13153398 0.20655565 0.2870314 -0.16019818
-0.06803862 -0.07770418 -0.059412103 0.03763575 -0.0774058 0.08125687 1.0543004 -0.6963444
0.3968423 -0.00063932705 -0.10069329 -0.102178685 -0.16102083 -0.3861841 0.03920724 -0.5356517
-0.15889508 -0.24739236 0.0832051 0.18193644 0.3120441 -0.18310028 -0.10031637 -0.08182841
0.24293952 -0.015175617 -0.33682108 -0.7329798 -0.35485443 0.15200165 0.26171538 -1.0490443
0.2388843 -0.046330787 -0.1380429 -0.31488776 -0.11353523 -0.11412816 0.013131216 -0.094763026
-0.33369878 0.09230029 -0.09050218 0.21461478 -0.26685807 -0.03951509 -0.5885568 -0.043607067
-0.24230045 -0.32773563 -0.096401714 -0.071829915 -0.026414022 -0.065733075 -0.2782015 -0.0109642465
-0.26890162 -0.26351112 -0.10443561 0.1802761 -0.27848017 -0.07693945 -0.2611913 -0.3027541
-0.0033088662 0.17828268 -0.250025 -0.26133946 -0.02843914 -0.29116458 0.18712698 0.014273841
-0.14091446 0.16437957 -0.006390794 -0.67823356 -0.13113402 -0.026051639 0.19596641 0.13949662
-0.08642141 -0.18733518 -0.13540377 -0.1558179 -0.030699916 -0.26263338 -0.14901692 -0.08400861
0.44234204 -0.04879342 -0.07780738 -0.13807945 0.06089211 -0.2402818 -0.09046563 0.5898202
00000000: 0112 5fbd 2888 e73d 62b1 a1bd ced0 8bbe
00000010: 9b61 46bd 2666 a0bd d768 eabe 7407 a2bc
00000020: 3ceb 6d3d 1290 09be caf8 11bd c9a2 e3bc
00000030: 3384 f93d 37f9 013b b00f 63be 6763 1abe
00000040: 4d96 babd ead9 853d c786 48be d642 103e
00000050: 1f60 bc3d ab87 2ebe 99ed 49bc 19e1 cf3e
00000060: 1499 78bd bf38 a03c f103 cabe f348 6abe
00000070: b8ca 6bbe 812f 81be 10f5 34bf 7834 093e
00000080: fc53 1bbe 7c30 08be 848e d3bd 4cae 01bd
00000090: 9012 90be 7a26 ec3e dbaa 4ebe 0439 4ebe
000000a0: f8db 28bf 91d5 283e 7fc0 45bd a9ef 0bbe
000000b0: 8e5d abbe 3c3d a6bd 7bcd 8e3d 5ebe 39be
000000c0: 1cfb 4a3e 5aae 03be 6157 fcbe 33d9 72bc
000000d0: 2318 aabe b07a 253d d733 e43d f9ac fa3d
000000e0: d1fb d7bd ede0 b83c e338 1dbf 83d6 bebd
000000f0: 64a6 26be 2eb1 a7bd 8e49 c93b 285f 3e3e
00000100: 9964 ec3d 0934 a6be 00fd d1bd 2d89 abbd
00000110: f4d7 a13d 2c04 423e 7c97 ce3d b24c a3bd
00000120: a9b8 10be 8b68 63be 5165 b3be 50dc 22bb
00000130: 2377 e9be 66e4 813b 5a05 41bd 16f4 653e
00000140: f2e9 21bd 13fa 96bd 69a1 043e 3e45 2fbd
00000150: 3e88 bd3d a0db 3abf bfbb 2abd 400b 66be
00000160: a554 833e 19a0 a4bd afea 15be 6932 8ebe
00000170: 1a0d 99be 90e0 89be 8938 97be 16be 1e3d
00000180: b7d0 51bc 7368 53bc 3e39 80bf 158b 9f3a
00000190: 3ef9 c03e a860 4bbe e7e7 3f3d eb2d de3b
000001a0: cca7 eebd 3ba7 b3bd 88a8 9a3d 1bfb bbbd
000001b0: efbf 57be 9c76 84be 3ef9 b63d f167 31be
000001c0: 39c0 b7be 2464 3bbe f0c3 f63d a9f2 56be
000001d0: 4e39 203e 49d0 89bd a12f 19be 3c23 403e
000001e0: 73e3 40be a6e8 d4bd 0990 4d3e b554 4a3e
000001f0: 8705 24be 432c d0bd c0c8 bd3d 0c45 833c
00000200: 5ae9 4abe 204a 003e 0f1c 353e f40c 183d
00000210: 636f 7b3e d224 5abd da03 1cbd 541a 833d
00000220: e216 aa3d e6e9 98be 39c8 eabe f21a ddbc
00000230: 4ba8 bdbd e097 103d 5a8e 763e c96a 1dbe
00000240: da65 13bf c11e e7be 8e67 81bd 6d8f 03bd
00000250: c659 99bd 5971 ddbe 724d 38be c1e4 713e
00000260: 7047 86bd bafd 053e a0de 873e cd34 acbf
00000270: d8b0 063e 5383 533e c8f5 923e fe0a 24be
00000280: d557 8bbd 5e23 9fbd 1b5a 73bd f227 1a3d
00000290: ef86 9ebd 006a a63d 51f3 863f a043 32bf
000002a0: ea2e cb3e 8398 27ba 4938 cebd 0f43 d1bd
000002b0: a5e2 24be ecb9 c5be c597 203d 7820 09bf
000002c0: 64b5 22be 6c54 7dbe 6f67 aa3d 8c4d 3a3e
000002d0: 3fc4 9f3e a47e 3bbe ab72 cdbd a795 a7bd
000002e0: 23c5 783e 27a3 78bc d073 acbe 90a4 3bbf
000002f0: 7baf b5be 52a6 1b3e 8fff 853e 1547 86bf
00000300: 169e 743e 5ac5 3dbd 1e5b 0dbe f838 a1be
00000310: 2985 e8bd 06bc e9bd 5024 573c 1e13 c2bd
00000320: 91da aabe ef07 bd3d 3559 b9bd fac3 5b3e
00000330: 9fa1 88be 93da 21bd a9ab 16bf 539d 32bd
00000340: 9c1d 78be f7cc a7be 436e c5bd 901b 93bd
00000350: 3862 d8bc 109f 86bd 6d70 8ebe 62a3 33bc
00000360: 79ad 89be eeea 86be 56e2 d5bd 4c9a 383e
00000370: f494 8ebe 6e92 9dbd deba 85be 9602 9bbe
00000380: 90d9 58bb bc8f 363e 4703 80be 49ce 85be
00000390: 33f9 e8bc 8613 95be 379e 3f3e d4dc 693c
000003a0: e14b 10be 1e53 283e de69 d1bb b7a0 2dbf
000003b0: ff47 06be 3f6a d5bc 6bab 483e 34d8 0e3e
000003c0: b5fd b0bd cbd4 3fbe 49a7 0abe ba8e 1fbe
000003d0: 647e fbbc e277 86be e497 18be b50c acbd
000003e0: a87a e23e 9cdb 47bd 7a59 9fbd b364 0dbe
000003f0: 016a 793d 6f0c 76be 0b46 b9bd 75fe 163f

v2.2.weight f4 [128, 256]
0.024831032 0.028996171 -0.0047785877 -0.09819977 -0.07660957 -0.052687977 -0.13215724 -0.08527077
0.024827393 -0.106556274 0.06563627 -0.072959535 -0.05835771 -0.100107364 -0.12571834 -0.021827912
-0.16781764 -0.07301961 -0.013138127 -0.02400969 0.058186065 -0.0712872 -0.068836525 0.010951539
-0.045666356 -0.056299947 -0.06909534 -0.011903129 -0.066331625 0.08427784 0.002438895 -0.016219497
0.05341003 0.02298673 -0.027749216 -0.13551424 -0.09609179 -0.05730428 0.020298613 -0.037868008
0.018840775 0.020015381 0.03719813 -0.012232147 0.012631685 0.0087554 0.060054667 0.06742381
-0.043250844 0.021254847 -0.014877474 0.0748834 -0.11058741 -0.012969347 0.07538149 -0.050687615
0.020270817 -0.05313737 -0.14918727 -0.13990521 -0.04325769 -0.07261427 -0.001968421 0.05009918
-0.03449781 -0.119077615 -0.08127653 -0.01029767 -0.019344943 -0.017630799 -0.0024871302 0.07842845
-0.0057277484 0.029358031 -0.02523958 0.04720865 -0.09029832 0.026709268 0.039113663 -0.015622424
-0.07050007 -0.07611997 -0.11996256 -0.049687516 0.048785668 -0.043166924 -0.08509572 -0.17260048
-0.08884879 0.01362676 -0.08518612 -0.041282848 -0.16618277 0.011787482 -0.10823854 -0.10958954
-0.023368003 0.011836978 -0.02413589 -0.089192614 -0.0087217055 -0.032280453 -0.020897184 -0.21143259
-0.03642196 -0.028665215 -0.07252129 0.018955812 -0.070216 -0.032406848 -0.052778155 -0.19713092
-0.10647717 -0.11944564 0.018826172 -0.022898557 -0.04492248 0.056876734 -0.05666005 -0.0008295559
-0.16731697 -0.01642534 -0.042752672 -0.01630024 -0.02995164 -0.04070451 0.056530185 -0.049500998
-0.11299756 -0.14984971 -0.060340937 -0.06013988 -0.027728736 0.03053086 0.066529855 0.0581084
0.0041187303 -0.043348156 -0.020039711 -0.00847583 0.07216432 -0.078718565 0.0021586407 -0.08081762
-0.20516229 0.00825866 0.07827349 -0.09300335 0.06355669 -0.12683551 -0.09463618 -0.15055434
-0.029065995 -0.056642987 0.0061774584 -0.060199264 -0.10598667 -0.060713492 -0.025236037 -0.051476963
0.05314153 0.06833962 0.053838413 -0.061953135 -0.08027309 -0.19374351 -0.24923462 -0.014540583
-0.003823344 -0.04105365 -0.043334626 0.044905037 -0.09987087 0.046789277 0.045886572 -0.1886428
-0.018444512 -0.0685214 0.06205514 -0.079374515 -0.18827593 -0.07115316 0.010112064 -0.023316484
0.054628447 -0.063490056 -0.18746373 0.03171552 -0.12065388 -0.070557974 0.021349339 -0.04102239
-0.15976636 0.03791674 -0.033319913 -0.07116669 -0.055704616 -0.029533494 0.07648772 -0.050518386
0.037534524 0.009616248 -0.01800828 -0.010592921 -0.05533296 0.046633117 -0.10758253 -0.083994254
0.032009214 -0.019484615 -0.028183987 0.034762412 -0.06907518 -0.060579155 0.043605894 0.00788118
-0.110883966 -0.05878542 -0.03590515 0.074976124 -0.075699694 0.043525912 0.02311969 -0.017590484
0.06384124 0.056261804 -0.09168991 -0.043861493 -0.02257237 -0.07546957 -0.060767975 -0.034689523
-0.08044545 -0.09494974 0.068024114 -0.09266903 0.067001976 0.046168156 -0.03774799 0.04640702
-0.055435516 -0.0352315 0.056023657 -0.045568544 -0.085426696 -0.16785909 0.026051855 0.05482881
-0.09407939 0.07174995 -0.01140216 0.04657694 -0.076093346 -0.05064311 -0.016292742 -0.08114916
00000000: 736a cb3c 6189 ed3c b395 9cbb f61c c9bd
00000010: 7ae5 9cbd 59cf 57bd 3a54 07be 71a2 aebd
00000020: d162 cb3c 2d3a dabd 4f6c 863d cf6b 95bd
00000030: 7e08 6fbd 1705 cdbd 4fbc 00be 73d0 b2bc
00000040: 63d8 2bbe 4e8b 95bd 4c41 57bc f8af c4bc
00000050: 8354 6e3d 06ff 91bd 2afa 8cbd 156e 333c
00000060: a50c 3bbd c69a 66bd dc81 8dbd 5705 43bc
00000070: e0d8 87bd dc99 ac3d ded5 1f3b c0de 84bc
00000080: 7ac4 5a3d ab4e bc3c 5352 e3bc 3fc4 0abe
00000090: c6cb c4bd e5b7 6abd 4749 a63c 7c1b 1bbd
000000a0: f857 9a3c 4cf7 a33c 115d 183d 5869 48bc
000000b0: 20f5 4e3c cf72 0f3c e2fb 753d 7f15 8a3d
000000c0: cc27 31bd a51e ae3c a6c0 73bc 785c 993d
000000d0: a77b e2bd 627d 54bc 9c61 9a3d d19d 4fbd
000000e0: fc0e a63c 92a6 59bd 8cc4 18be 5043 0fbe
000000f0: fa2e 31bd cab6 94bd a000 01bb cc34 4d3d
00000100: 934d 0dbd f7de f3bd 4f74 a6bd 8fb7 28bc
00000110: 4979 9ebc 776e 90bc 1fff 22bb 189f a03d
00000120: d6af bbbb 4180 f03c 3cc3 cebc db5d 413d
00000130: 53ee b8bd 65cd da3c a635 203d 32f5 7fbc
00000140: 5762 90bd c9e4 9bbd eeae f5bd 2385 4bbd
00000150: 7bd3 473d cdcf 30bd aa46 aebd 2ebe 30be
00000160: 5bf6 b5bd c642 5f3c 0f76 aebd 3418 29bd
00000170: d12b 2abe 4820 413c 2bac ddbd 7b70 e0bd
00000180: 416e bfbc e2ef 413c a1b8 c5bc 9eaa b6bd
00000190: 7ce5 0ebc 8238 04bd 9230 abbc c981 58be
000001a0: 312f 15bd 50d3 eabc 0b86 94bd 3849 9b3c
000001b0: 68cd 8fbd 0bbd 04bd e82d 58bd b0dc 49be
000001c0: b410 dabd ea9f f4bd 5839 9a3c c195 bbbc
000001d0: a200 38bd 94f7 683d 5e14 68bd 8e76 59ba
000001e0: 2455 2bbe 6f8e 86bc 6d1d 2fbd 1588 85bc
000001f0: 245d f5bc c6b9 26bd 328c 673d 8fc1 4abd
00000200: 446b e7bd 3472 19be 0f28 77bd 3c55 76bd
00000210: 6027 e3bc db1b fa3c ce40 883d 1303 6e3d
00000220: 6af6 863b d68d 31bd 522a a4bc 35de 0abc
00000230: e3ca 933d 3337 a1bd fb77 0d3b b583 a5bd
00000240: 1016 52be 554f 073c da4d a03d 8a78 bebd
00000250: 032a 823d 2be1 01be 9dd0 c1bd eb2a 1abe
00000260: cf1b eebc 7a02 68bd 476c ca3b 8193 76bd
00000270: 8a0f d9bd b6ae 78bd cebb cebc 82d9 52bd
00000280: efaa 593d a5f5 8b3d ab85 5c3d 92c2 7dbd
00000290: 3866 a4bd b364 46be 5c37 7fbe a03b 6ebc
000002a0: 1191 7abb df27 28bd a67f 31bd 58ee 373d
000002b0: 1989 ccbd 1da6 3f3d 8ff3 3b3d 942b 41be
000002c0: f218 97bc f354 8cbd 882d 7e3d 1b8f a2bd
000002d0: 68cb 40be bfb8 91bd 12ad 253c 3602 bfbc
000002e0: 14c2 5f3d 1307 82bd 7ef6 3fbe 22e8 013d
000002f0: 6219 f7bd b380 90bd cfe4 ae3c 1807 28bd
00000300: cb99 23be 954e 1b3d 767a 08bd d7bf 91bd
00000310: 862a 64bd 3af0 f1bc 98a5 9c3d 5eec 4ebd
00000320: cdbd 193d 788d 1d3c 1a86 93bc ee8d 2dbc
00000330: d0a4 62bd 5e02 3f3d 3b54 dcbd 2e05 acbd
00000340: 181c 033d 339e 9fbc 1be2 e6bc 0863 0e3d
00000350: 4a77 8dbd d921 78bd 189c 323d 1120 013c
00000360: 2217 e3bd fbc8 70bd 4711 13bd 158d 993d
00000370: 7108 9bbd 3a48 323d 8165 bd3c eb19 90bc
00000380: 32bf 823d c772 663d ebc7 bbbd 1ca8 33bd
00000390: b1e9 b8bc ca8f 9abd d7e7 78bd 9a16 0ebd
000003a0: 96c0 a4bd 0275 c2bd 3a50 8b3d 43c9 bdbd
000003b0: 5538 893d d21a 3d3d a39d 1abd 4a15 3e3d
000003c0: 5a10 63bd e84e 10bd 1079 653d 15a6 3abd
000003d0: 31f4 aebd 41e3 2bbe b36a d53c 2d94 603d
000003e0: b2ac c0bd a3f1 923d 20d0 3abc 76c7 3e3d
000003f0: d4d6 9bbd 266f 4fbd 5b78 85bc 8831 a6bd

v2.2.bias f4 [128]
-0.28558102 1.2089397 -0.02337809 -0.31798252 -0.687959 -0.1697848 -0.27759868 -0.2401608
3.254301 -0.20649336 -0.23187059 -0.5114053 -0.2367864 -0.23479693 -0.23293905 -0.16164982
-0.14274281 0.7448938 -0.30746332 -0.18681696 -0.19257088 -0.19098887 -0.24621412 -0.08231826
-0.44180846 -0.42758232 -0.22121924 -0.11205508 1.8619128 -0.27076522 -0.18111558 -0.30101976
-0.24296685 -0.3298453 -0.824755 -0.3223262 -0.23902653 -0.021983016 -0.20584397 -0.11631972
-0.58119106 0.33053857 -0.27647108 0.22615759 -0.23519656 -0.663589 -0.44150993 -0.09870458
-0.17244135 -0.2207808 -0.24598712 -0.22667892 -0.056140427 -0.5604757 -0.5201324 -0.19638501
-0.018925423 -0.3981261 1.1462942 -0.17925373 -0.15246093 0.11432702 -0.020128774 -0.04675886
-0.24964656 -0.25848317 0.19838616 -0.22052169 -0.19938691 -0.3999348 -0.34420973 -0.23959337
-0.37611598 -0.28222516 -0.16557005 -0.24814385 -0.26506865 0.67132956 -0.27540642 0.05937971
-0.1443682 -0.2195904 -0.23211117 -0.14767694 -0.28237215 -0.23512861 -0.40830624 -0.3411057
-0.28408968 -0.362369 -0.2489352 -0.18467857 1.4196284 -0.2078068 -0.68128926 -0.28122082
-0.18155047 -0.094372965 0.61416984 -0.66330487 -0.73589647 -0.21909164 -0.10696413 -0.18768641
0.040258165 -0.2779289 -0.2206564 -0.28391716 -0.077709295 -0.33836752 -0.31476697 0.24673499
-0.1983116 -0.17978136 -0.4133078 -0.41671747 -0.2079697 -0.32236 -0.19265917 -2.9806035
-0.60789305 -0.23117052 -1.1140646 0.33814692 -0.26087806 -0.4726805 -0.23935339 -0.23577796
00000000: ad37 92be 89be 9a3f 6883 bfbc 9bce a2be
00000010: 151e 30bf 11dc 2dbe 6a21 8ebe b6ec 75be
00000020: 7846 5040 ff72 53be 7c6f 6dbe 75eb 02bf
00000030: 2278 72be 9b6e 70be 9387 6ebe 8887 25be
00000040: 2c2b 12be 5cb1 3e3f d56b 9dbe f24c 3fbe
00000050: 4d31 45be 9692 43be 8e1f 7cbe 7a96 a8bd
00000060: b834 e2be 12ec dabe 4c87 62be 227d e5bd
00000070: 2953 ee3f bda1 8abe 5d76 39be 431f 9abe
00000080: 4dcc 78be 7ce1 a8be 2523 53bf f107 a5be
00000090: 5fc3 74be ba15 b4bc c3c8 52be 0939 eebd
000000a0: f0c8 14bf 5a3c a93e 9e8d 8dbe db95 673e
000000b0: 5ed7 70be f8e0 29bf 970d e2be a025 cabd
000000c0: 7794 30be 5d14 62be 0ce4 7bbe 851e 68be
000000d0: 81f3 65bd 567b 0fbf 6627 05bf 2719 49be
000000e0: 7d09 9bbc 2fd7 cbbe c5b9 923f 4a8e 37be
000000f0: b81e 1cbe 4924 ea3d 19e5 a4bc 3886 3fbd
00000100: 59a3 7fbe e857 84be be25 4b3e 70d0 61be
00000110: 152c 4cbe 41c4 ccbe 423c b0be f757 75be
00000120: 4692 c0be d17f 90be 328b 29be 6c19 7ebe
00000130: 14b7 87be 41dc 2b3f 1202 8dbe 2438 733d
00000140: 42d5 13be 4edc 60be 8dae 6dbe a038 17be
00000150: 1593 90be 8ec5 70be 840d d1be 68a5 aebe
00000160: 3474 91be 6e88 b9be dee8 7ebe 611c 3dbe
00000170: 62b6 b53f 4ecb 54be f968 2ebf 2dfc 8fbe
00000180: 5ee8 39be 9d46 c1bd 3c3a 1d3f 59ce 29bf
00000190: b663 3cbf 8f59 60be 0310 dbbd de30 40be
000001a0: bfe5 243d b24c 8ebe c0f3 61be 975d 91be
000001b0: 0d26 9fbd 823e adbe 2329 a1be 19a8 7c3e
000001c0: 3212 4bbe 9b18 38be 149d d3be fe5b d5be
000001d0: 02f6 54be 5f0c a5be 7248 45be 35c2 3ec0
000001e0: e19e 1bbf f7b7 6cbe ab99 8ebf 9821 ad3e
000001f0: cf91 85be 2e03 f2be 0e19 75be c76f 71be
