maddpg_actor_0.pth (torch, 280916 bytes, 8 tensors)

mlp.0.weight f4 [128, 24]
000000 9f 91 26 3d bc 55 ab 3e 05 d7 4b bd 64 48 04 bd
       0.04066622 0.33463848 -0.049765605 -0.0322956
000010 48 8b 9f bd 2e 06 b0 be f4 33 a8 bc f9 ed 25 be
       -0.07790238 -0.34379715 -0.020532586 -0.1620406
000020 c3 60 28 3e 90 26 60 3e 7d 22 06 bd 52 c1 0f be
       0.16443162 0.2188971 -0.032747734 -0.1403859
000030 bc 92 13 be 0a 85 91 be 25 b4 ac bc 1e 73 24 be
       -0.14411443 -0.28421813 -0.021081993 -0.16059539
000040 5e 28 ef 3d fa 59 4a 3e 02 51 9a bd 76 2a 73 3d
       0.11677621 0.19760886 -0.07534982 0.059366666
000050 26 38 79 be 99 b6 1d be 0c a0 18 be 46 c0 7d 3d
       -0.24337825 -0.15401687 -0.14904803 0.061950944
000060 be e5 67 3e 89 d3 ab be a4 ee b0 bc c6 df 9b 3d
       0.22646233 -0.33559826 -0.021598168 0.07611041
000070 b8 6a e1 3b f9 65 ab be dc 98 8b bd 17 92 2e bc
       0.006879177 -0.33476236 -0.06816265 -0.010654948
000080 82 92 e0 3d 87 1b a0 be 98 f9 41 be 5f 80 d5 3d
       0.10965444 -0.31271002 -0.18942869 0.104248755
000090 17 5b fd bd 18 99 ca be 1c 16 5c be 72 e4 3c 3e
       -0.1237089 -0.39569926 -0.21492809 0.1844652
0000a0 71 84 1f bd 6b 8c e8 be ab d8 d0 bc e6 40 bd 3d
       -0.038944665 -0.4541963 -0.02549394 0.09240894
0000b0 14 bb 8d be 7e 8e 59 be 5f ba 92 bd ac 6e 01 3e
       -0.27681792 -0.21245763 -0.07164454 0.12639874
0000c0 05 f4 c9 bd 6e be 28 bf 7c 46 17 bd 68 38 20 bd
       -0.09860996 -0.6591557 -0.036932454 -0.039116293
0000d0 a4 e2 92 bc 47 98 2b 3d f9 b4 ea bc 3d 9c 8a bc
       -0.017930336 0.04189327 -0.028650748 -0.016920203
0000e0 06 46 9d bc b9 12 11 bf 12 3b b3 bd ad 6e 03 bc
       -0.019198429 -0.56669194 -0.08751501 -0.008021993
0000f0 99 1c 11 3c e8 7d 6c bd 79 2d b9 bd c4 8f 5c 3c
       0.008856916 -0.05773726 -0.09041876 0.013462011
000100 40 17 86 bd 61 8d 02 bf cd fa b1 bb 8c 03 9d 3c
       -0.06547403 -0.5099698 -0.005431509 0.01916673
000110 20 2f c1 3d d1 5a 32 be bd ae 96 bd fb d5 02 3d
       0.094328165 -0.17417456 -0.073575474 0.03194235
000120 cc 85 91 bb 2f 3f a3 3e fa 51 4c 3d d1 51 84 3d
       -0.0044409987 0.31884143 0.049882866 0.06460918
000130 7a 79 37 3e 15 06 35 3e 21 8f 82 3d 14 e5 04 3d
       0.17917433 0.17678101 0.06374956 0.03244503
000140 75 75 8a 3d e3 1b 9d 3e ce 84 16 be a9 f6 09 3d
       0.067606844 0.30685338 -0.14699098 0.0336825
000150 78 39 75 3e 85 37 a7 bd c2 40 c6 bd ee 15 f5 3d
       0.23947704 -0.081648864 -0.0968032 0.119670734
000160 00 c2 da bb da 52 cc 3e 83 ee 5b 3d c4 98 57 bd
       -0.0066759586 0.3990696 0.05369426 -0.052635923
000170 ad 7d 6a 3d 26 e7 33 be 81 4c 32 bd b1 c0 aa bd
       0.05724876 -0.17568645 -0.04352999 -0.08337534
000180 3f 9e b6 3d 41 81 6e be de c1 68 3e 0a f0 08 bf
       0.08916902 -0.23291494 0.22730204 -0.5349127
000190 45 bd 35 3e 28 5c 83 be 48 50 c3 3d 80 42 1e bf
       0.17747982 -0.25656247 0.09536797 -0.6182022
0001a0 d5 1f d1 3d 51 8a c7 be 80 6c b3 bd 71 c7 f1 be
       0.102111496 -0.38972715 -0.08760929 -0.47222474
0001b0 cf 4a d4 3d 18 da 5f be 7a 7d 74 bc c2 63 d7 be
       0.10365831 -0.2186054 -0.014922494 -0.42068297
0001c0 06 73 a2 bd d8 82 ad be 84 5c 55 be 43 e4 14 be
       -0.07932095 -0.33888888 -0.20836073 -0.145402
0001d0 3a 2c 82 3c e8 50 be 3d 1d 27 4a be ce f0 3d be
       0.01589023 0.092927754 -0.19741483 -0.18548891
0001e0 e3 ee a2 3d d1 5b 96 3d 45 06 9d bb 07 8e aa bd
       0.0795572 0.07341731 -0.004792007 -0.08327871
0001f0 2f 10 22 3e b8 3d 47 bd 32 2c 6e 3c 15 e5 2b bd
       0.15826486 -0.048642844 0.014536904 -0.041966517
000200 64 73 74 3c 2a b3 ff bc b2 06 87 bc b5 88 38 bd
       0.014920089 -0.031213362 -0.016482685 -0.04505225
000210 86 77 5c bd 51 1d 36 3e 94 be 63 bd 4c 56 84 bd
       -0.053824924 0.17784621 -0.05560167 -0.06461772
000220 dd a8 bb 3d c0 0d 88 bd 64 ff 8d 3d 15 ff dd bc
       0.091630675 -0.066432476 0.069334775 -0.027099172
000230 dd 4d 9b bc 71 48 04 3f 11 c0 d9 3d 3f 1f 41 bd
       -0.018958027 0.51673037 0.10632337 -0.04714894
000240 a2 cd 32 be 0e 89 3f bf 18 f1 d8 3a c7 74 de 3d
       -0.17461255 -0.74818504 0.0016551344 0.10862117
000250 13 f0 01 3c 7a 97 7d bd 6b ed 4f bd 32 fe 83 3d
       0.007930773 -0.061912037 -0.05076353 0.06444968
000260 6c 39 43 bc a9 b8 1f bf 71 cd 02 bd 4e 34 7b bb
       -0.011915546 -0.62391144 -0.031934205 -0.0038330737
000270 b2 e1 76 3d d6 c7 74 be e6 88 26 3d 99 49 d7 3d
       0.060273834 -0.23904356 0.0406579 0.105120845
000280 86 b4 0e be 5f 3d 46 bf 30 59 d4 bb 24 db b9 bd
       -0.13936052 -0.77437395 -0.0064803585 -0.09075001
000290 e2 cd 1d 3e 7c ba 38 be 3f ce 38 3d 02 c2 67 bd
       0.1541057 -0.18039888 0.045118567 -0.056581505
0002a0 fc 51 4c 3d f1 73 0a be ef 57 e2 3d d1 40 17 be
       0.049882874 -0.1352079 0.11051928 -0.14770819
0002b0 29 c5 0a 3e 8d b8 1b 3e 62 08 ea 3d 80 2a 03 be
       0.13551773 0.1520712 0.1142738 -0.12809181
0002c0 7c aa bc 3d 9f 21 b1 bd 41 96 eb bb b2 9a 55 be
       0.09212205 -0.08648991 -0.0071895425 -0.20859793
0002d0 76 e3 c7 3e 4f af e1 bd cf 23 f0 3b f5 cf 1d be
       0.39040726 -0.110197656 0.0073284875 -0.1541136
0002e0 58 c3 a0 3d 1c 32 67 be 18 95 3d bc d5 10 13 b9
       0.07849759 -0.22577709 -0.011571191 -0.00014025283
0002f0 23 39 1c 3f 52 92 8e be 17 25 f8 bd f4 98 9a 3d
       0.61024684 -0.2784601 -0.12116449 0.07548705
000300 0a 08 ea 3d de 12 94 bd 7e bc 05 be c2 47 7d bc
       0.114273146 -0.07230161 -0.13060185 -0.015459003
000310 4f bb 2e be 5e 09 a2 be af 0d fd bd b3 2e 0b 3e
       -0.1706364 -0.31647772 -0.123561256 0.13592033
000320 20 7d c0 3d 2b b5 33 be 2f 81 db bd 88 11 34 be
       0.09398866 -0.17549579 -0.10717999 -0.17584813
000330 3c 88 64 be ef 66 5f be a5 68 21 bd 74 09 10 be
       -0.22317594 -0.2181661 -0.039406437 -0.14066106
000340 a1 d4 ee 3b 41 da 20 be 6d 43 17 3e 68 5d d2 bd
       0.007288531 -0.15708257 0.14771815 -0.10271722
000350 a4 41 78 be be 95 0f be fa a7 3d 3e 7e cc bb bd
       -0.2424379 -0.14021966 0.18521109 -0.09169863
000360 d1 c7 0c 3e 6f 81 b2 be 68 a4 45 3e 39 67 b6 3d
       0.13748099 -0.34864375 0.19300997 0.08906407
000370 b2 55 4b be 19 b8 85 be 03 87 c8 3d a2 f5 bb bc
       -0.19856909 -0.26117018 0.097913764 -0.022944275
000380 21 5f 1f 3e 96 a2 44 be ea 64 00 be aa c8 46 3d
       0.15563633 -0.19202647 -0.12538496 0.048531212
000390 31 9e 5d be 52 3a 97 be 2f d9 40 bd 11 ce 2e 3d
       -0.21642376 -0.29536682 -0.047082122 0.04267699
0003a0 8c 03 1d 3e 63 e9 b6 be 16 c1 16 3d 83 32 e6 bc
       0.15333384 -0.35724935 0.036805235 -0.028100258
0003b0 96 03 db be f3 28 b2 be 84 ff 8e 3c 6f 64 b4 bd
       -0.42776173 -0.34796867 0.017455824 -0.08808219
0003c0 53 d8 6f 3d 2b 7a 36 3d df 04 b9 bd 06 7c d5 3d
       0.058555912 0.044550102 -0.09034132 0.10424046
0003d0 05 d4 58 3d ed 00 db be 9b 02 17 be c5 82 1a 3e
       0.052936573 -0.42774144 -0.14747088 0.15088947
0003e0 67 0c ac bd 4d 0c ae 3d f3 9f fb bd db d9 b9 3a
       -0.08400803 0.0849844 -0.12286367 0.0014179306
0003f0 de 07 70 3e 76 b7 d2 be 31 77 4e be d0 f6 7e bd
       0.23440501 -0.41155595 -0.20162655 -0.062247097

mlp.0.bias f4 [128]
000000 95 96 6c 3d 56 ac 45 3e 61 2a 24 be 25 e9 51 be
       0.057760794 0.19304022 -0.16031791 -0.20499094
000010 b9 71 9d 3d 11 73 5b be 71 9f de 3d 99 bb f2 bd
       0.076877065 -0.21430613 0.10870255 -0.11852188
000020 3e 1a df 3d e6 eb 5d 3e 55 ec fd 3d ee 98 0d 3d
       0.10893677 0.2167202 0.123985924 0.034569673
000030 dc 77 22 be 2f 2c 85 3d 2f 6b eb bc a8 a4 23 be
       -0.15866035 0.06502568 -0.028737633 -0.1598078
000040 06 67 d0 bd 27 7e 82 3d e9 a4 a5 be 15 a7 8d 3d
       -0.101759 0.06371718 -0.3235238 0.06916634
000050 7d c3 92 3d 46 39 7c 3c 13 21 2d be db 9c 16 be
       0.07166193 0.015394514 -0.16907148 -0.14708273
000060 5c f2 a5 bc 51 ee 95 3c 56 8e 6f be d5 f8 87 3e
       -0.020257168 0.018302115 -0.2339414 0.2655703
000070 8f a5 9c be ce 80 bf bd 47 26 10 3d 11 c9 6a 3d
       -0.3059506 -0.093507394 0.035192754 0.057320658
000080 8d 6b bd 3d d8 e7 17 be ec 72 65 be e6 19 11 3e
       0.09249029 -0.14834535 -0.2240712 0.14170036
000090 8b 67 23 3e 98 17 0a bb 8e 82 06 be 8e 58 1c 3d
       0.15957467 -0.0021071192 -0.1313574 0.03817039
0000a0 41 ce f6 bc 4d 26 21 3e 0d 4c a4 3c f5 98 c2 bd
       -0.030127646 0.15737267 0.020055795 -0.095018305
0000b0 fb 0a b7 bd 26 13 d6 3d 8b 38 0c 3e 34 8c 1c be
       -0.08937641 0.10452871 0.13693444 -0.15287858
0000c0 26 97 d8 3d f9 04 f3 3c 73 ab 08 be 30 8d 20 be
       0.10575704 0.029665457 -0.13346653 -0.15678859
0000d0 a4 54 10 3d 8d 1a 3b be da 13 05 3e 2f 8b 42 be
       0.03523697 -0.18271847 0.12995854 -0.18998407
0000e0 da 2e c8 3d 78 5a 02 be 03 b6 7c be 62 30 c6 3d
       0.09774561 -0.12729824 -0.24678807 0.09677197
0000f0 45 eb f1 bd 41 33 f9 bd 4d 3d 38 bd 44 e4 f4 3d
       -0.11812452 -0.12167979 -0.044980336 0.11957601
000100 47 cc 31 3e 86 26 01 3e 1d 1d 05 3d d4 73 64 3d
       0.17363082 0.12612352 0.032498468 0.055774525
000110 7c e8 9c bd 64 3e 12 3e 5e 31 69 3d 48 92 76 bd
       -0.076615304 0.14281613 0.056931846 -0.0601981
000120 dd 8e 8e bd 1e 3f 57 be 66 21 29 be a8 91 48 3e
       -0.06960843 -0.21020171 -0.16516647 0.19586813
000130 51 21 1d be 4c 78 5a be 21 0c d5 bd 7d 30 02 3e
       -0.1534474 -0.21334952 -0.10402704 0.1271381
000140 fe be 86 be 73 59 af be 82 78 b3 bc d7 8d c3 3c
       -0.2631759 -0.34247932 -0.021908049 0.023871345
000150 b8 2d 48 3e 22 e4 f9 bc 21 89 20 bd f7 dd 9a be
       0.1954869 -0.03050429 -0.039193276 -0.3024747
000160 9e 1e c7 3c e4 7f ad bc 2f f8 70 be 31 4a d1 3d
       0.024306592 -0.021179147 -0.23532175 0.10219229
000170 9c 4b 9e 3d ef d1 06 3e 11 7a 02 be 25 02 79 bd
       0.07729265 0.13166021 -0.12741877 -0.06079306
000180 aa 08 46 be 87 db aa 3d e0 5a c2 bd e3 3d d6 bd
       -0.19339243 0.08342653 -0.09489989 -0.10461023
000190 af a1 d9 3c 2d e3 17 be 5a 1b 17 bd 44 14 0b be
       0.026566355 -0.14832754 -0.03689132 -0.1358195
0001a0 b8 8e 12 be a4 b9 0a 3b 28 43 a1 3d fd fc 1d be
       -0.14312255 0.002116778 0.07874137 -0.15428539
0001b0 94 7d 45 be d2 c9 77 3e 22 e2 ee bc 36 1e 7e 3d
       -0.19286186 0.24198082 -0.029160563 0.06204053
0001c0 c0 9d 37 3d c1 fa bd 3e e2 74 3b bd 54 ca 8e bd
       0.044828176 0.37105373 -0.045765765 -0.06972185
0001d0 0d ea 68 be eb 10 4c be 4f 4b 56 3d ce a3 cc be
       -0.22745533 -0.19928329 0.052317914 -0.39968723
0001e0 9e 7c 6e 3e 94 2a 88 ba 45 21 d8 3d 51 36 cc 3c
       0.23289725 -0.0010388666 0.10553221 0.024928244
0001f0 e9 14 13 be c0 0a 81 3d d4 f4 c2 bd 3e d8 83 be
       -0.14363445 0.063008785 -0.095193535 -0.25750917

mlp.2.weight f4 [256, 128]
000000 1d 30 7b 3d bb 5c 91 be 31 2d d0 3a cf 49 ec bd
       0.06132518 -0.2839106 0.0015882609 -0.11537515
000010 39 a4 8a be d4 30 0e 3e 87 56 db bb db 4b 12 bd
       -0.27078417 0.13885814 -0.0066936645 -0.035716873
000020 ca a9 7e be d2 46 3a bd f4 59 40 bd 65 56 b0 3d
       -0.24869457 -0.045477696 -0.046960786 0.086102284
000030 7c 05 e4 bc 23 97 1e bd 6f 1c c1 bd 87 13 2e 3e
       -0.027834646 -0.038718354 -0.094292514 0.16999637
000040 d9 b4 42 3e e2 92 1d be 7b dd 91 3d b7 57 19 3d
       0.190143 -0.15388063 0.07122322 0.037437167
000050 19 90 e8 3c cb 03 26 bd 9c c3 99 bd 33 6b 87 3d
       0.028389024 -0.04053096 -0.07508013 0.066122435
000060 98 df 07 bd 37 d7 f2 3d ca 21 40 3e 26 19 5b be
       -0.03317222 0.11857455 0.1876289 -0.21396312
000070 9d 5e 1d 3e 6a d8 87 be 14 96 b8 bd 5d cb 7e bd
       0.15368123 -0.26532298 -0.09013 -0.06220566
000080 16 bd 1f 3d 26 b9 3a 3d 17 40 01 bd b0 09 06 3e
       0.038998686 0.045586728 -0.03155526 0.13089633
000090 85 94 63 bd 2f 52 da bd 0d c7 f8 be 6a e3 80 be
       -0.05556156 -0.106602065 -0.48589364 -0.25173503
0000a0 53 a9 b3 bc 0b 59 1b be ed 9d ca bd 8a 08 c3 be
       -0.021931326 -0.15170686 -0.09893403 -0.38092452
0000b0 62 58 da bc c2 08 ee bd 68 68 a7 3d 9e ba b5 3d
       -0.026653472 -0.11622764 0.08174211 0.08873485
0000c0 82 c3 48 3e b3 f4 6f ba 69 bd d5 3c 25 d8 81 3e
       0.1960583 -0.00091535895 0.026091294 0.25360218
0000d0 37 2d 4b 3b 27 db 54 bd 36 28 cb bd c1 04 3c 3d
       0.0031002292 -0.051966812 -0.09919779 0.04590297
0000e0 10 53 0f 3e c0 8b ee bd 80 31 5a 3e c5 95 c8 bd
       0.1399653 -0.11647749 0.21307945 -0.09794191
0000f0 8c 21 58 3e 74 a6 0d be 22 da b5 bd 1b 0e 1f 3d
       0.21106547 -0.13833028 -0.08879496 0.03883181
000100 2e 7c bf 3d 0c db 6a be f4 11 df be 32 f9 0e 3e
       0.09349857 -0.22935122 -0.43568385 0.13962248
000110 a4 65 5f bd b2 f1 9a be d9 6e 03 3e 3d 51 48 3d
       -0.05454029 -0.30262524 0.12835254 0.0489056
000120 58 7e 69 3e 11 86 b4 3b 66 de e1 bd b3 9c 28 bd
       0.22802103 0.005509146 -0.11028747 -0.041165065
000130 74 50 92 be c8 be 7c 3e 44 ce 5b 3e b0 51 30 bd
       -0.28577006 0.24682152 0.21465403 -0.043046653
000140 64 f1 5c 3d 5d 9e 34 bd ed 25 47 be a6 80 b8 bd
       0.053941146 -0.04409634 -0.19448061 -0.09008913
000150 40 be bd 3b 4e 52 82 be 9e 07 b7 be f0 c4 29 be
       0.005790502 -0.25453418 -0.35748 -0.16579032
000160 31 6e 03 3e 58 52 c3 bb 5e 8c 2e bd 0a 32 56 3d
       0.12835003 -0.005960744 -0.042614333 0.052293815
000170 1d 28 98 3c 7c 58 58 3d 77 f7 95 3a 0c c4 af bd
       0.018573815 0.05281876 0.0011441548 -0.08582315
000180 3a 40 fa 3d 51 30 95 bd 6b 29 58 be 40 b7 ea 3b
       0.122192815 -0.07284606 -0.2110955 0.0071629584
000190 38 a6 8f bd 0c 36 aa bc 38 ab 23 bd 80 ef 07 bb
       -0.070141256 -0.020777725 -0.03995821 -0.0020742118
0001a0 48 b3 fe 3d 49 88 5d bc fb 04 00 be d6 cd 0d be
       0.12436539 -0.013521262 -0.125019 -0.13848051
0001b0 32 86 a0 bd 3e a4 17 bd 69 44 0f be 81 90 fb 3c
       -0.07838096 -0.037021868 -0.1399094 0.030708553
0001c0 33 4d fb bd e4 ba 41 be fb 58 cb 3d b6 23 0a 3e
       -0.12270584 -0.1891895 0.09929081 0.13490185
0001d0 f2 f8 04 3e c7 13 80 3d 7a f9 53 be f3 28 69 bd
       0.1298559 0.06253772 -0.20700637 -0.056923818
0001e0 a1 9d ae 3d 85 46 88 3d f7 5f 89 bd 0f ad 0c 3e
       0.08526159 0.066540755 -0.06707757 0.13737892
0001f0 e9 ee 82 3d 31 8c 68 be 58 cf 86 be 8c ff bc 3d
       0.06393225 -0.22709729 -0.26330066 0.09228429
000200 e4 c5 25 3d 48 b6 be bb 6c 2e f5 bd b0 0c c7 3c
       0.040471926 -0.0058200695 -0.11971745 0.024298042
000210 06 a2 b5 be 42 df 9a 3d 0d e7 04 be 66 06 9a 3d
       -0.35475177 0.07562114 -0.12978764 0.07520752
000220 ae 93 6f bd 8d 24 88 bc e3 5f 6d bd 57 2e 3f be
       -0.058490448 -0.016618991 -0.057952773 -0.18670021
000230 8a 41 11 3e a0 21 8a bd 8f 92 2f bd d5 1b 03 3e
       0.14185157 -0.06744695 -0.04286438 0.12803586
000240 8b 5f 63 be 7a 26 40 bd 32 7e ce bd a1 43 9c be
       -0.22204416 -0.046911694 -0.100826636 -0.30520347
000250 0f b0 89 bd 0d e6 33 3d 23 d3 0a 3c f4 da 97 bd
       -0.06723034 0.043920565 0.0084731905 -0.07414809
000260 01 7b c4 3d 01 71 3f be 69 57 fb be 0c 98 18 3d
       0.09593774 -0.18695451 -0.49090126 0.03725438
000270 df 54 06 be 5f 54 a8 3d b2 e4 dd 3c 87 b5 29 3e
       -0.13118313 0.082192175 0.02708659 0.16573153
000280 3e 9d ac be f3 18 41 be 4c 6b 94 bc cc e5 86 bc
       -0.33713716 -0.18857174 -0.01811757 -0.016466998
000290 ba dc 26 3e 64 d6 44 3c 7a 9e ca be 8e bb 14 bd
       0.16295138 0.012014005 -0.39574033 -0.03631168
0002a0 48 16 eb bc 7a 5c 0d 3d 28 bb 36 3e 8d 07 c2 bd
       -0.028697148 0.03451202 0.17844832 -0.094740964
0002b0 7d 16 49 be 72 c4 55 bc 62 c0 3e be de a7 b6 be
       -0.19637485 -0.0130473245 -0.18628076 -0.35674948
0002c0 1a 76 31 bd 16 c9 ee bd 96 44 35 bd ea 1a b5 be
       -0.04332552 -0.11659448 -0.04425486 -0.35372096
0002d0 0e 8c 13 bf 00 5d 07 3e 2c a4 32 3e f2 36 9d be
       -0.5763558 0.1321907 0.17445439 -0.30705982
0002e0 87 1d 2f be 25 03 b8 be 2b 1f 55 be b5 07 f2 3c
       -0.17101108 -0.359399 -0.20812671 0.02954469
0002f0 c3 5e 5c 3d 89 11 8c 3d e6 d1 ab bb e8 01 33 3e
       0.05380131 0.06839282 -0.0052435277 0.17481196
000300 c7 54 07 bd 00 0e 80 bd 12 29 b3 be 59 c7 ab be
       -0.033039834 -0.0625267 -0.34992272 -0.33550528
000310 18 fb 0a 3d 82 39 94 bb dc 3a 3e be 33 74 05 3b
       0.033930868 -0.004523457 -0.1857714 0.002036345
000320 1c d1 68 be 5c e5 ff be 79 5c 0c bd 42 fe c6 3d
       -0.22736019 -0.49979675 -0.034267876 0.097164646
000330 a3 be ea bd f2 79 a2 bd a4 14 b8 be f6 53 0b be
       -0.11462142 -0.079334155 -0.35953248 -0.13606247
000340 5b ee d4 bd 5c b7 4d be cc 3b 2f bc 6f 19 ba 3d
       -0.10397025 -0.20089477 -0.010695409 0.09086882
000350 8c ee 0a 3d 7f d3 c2 bd 93 f4 90 bd ee 2d 2b bd
       0.033918902 -0.09512996 -0.07077899 -0.04179185
000360 af fc ca bd 37 a9 26 3e ee 45 6d be f7 58 a6 bd
       -0.09911477 0.16275488 -0.23171207 -0.081224374
000370 af 45 a3 3d 3a 1d a1 3d c0 00 22 be e3 6d 26 bf
       0.079722755 0.07866903 -0.15820599 -0.65011424
000380 6d 3b 1e bf 99 d3 cd be 53 c0 08 be 63 f7 26 be
       -0.61809427 -0.402005 -0.13354616 -0.16305308
000390 88 16 db 3c 55 e2 b8 3a 4c 1f a0 be e9 65 fa bd
       0.026744142 0.0014105538 -0.31273878 -0.12226469
0003a0 94 7e a8 3b 26 e7 d4 bc 81 2b a4 bd 71 1d 17 3d
       0.0051420424 -0.025989126 -0.0801611 0.036893312
0003b0 3f 11 af 3c a7 08 4b bc 3f cf d3 bd 18 6c ac 3d
       0.021370528 -0.0123922 -0.103422634 0.08419055
0003c0 98 07 0c 3e ac 03 14 3e 89 80 ed 3d c9 e1 db bd
       0.13674772 0.14454526 0.11596782 -0.107364245
0003d0 07 13 d1 3d 94 c6 c4 be f4 04 2c bc 2e 8e 13 3e
       0.10208707 -0.38432753 -0.010499228 0.14409706
0003e0 f9 d0 0a 3e e0 09 57 bc fd 41 27 be c6 f4 a6 3d
       0.13556279 -0.013124913 -0.16333766 0.081521556
0003f0 c6 6a 1e 3d 78 a3 b2 be b3 2b 65 3e b9 1b cc bc
       0.038676046 -0.34890342 0.22379951 -0.024915563

mlp.2.bias f4 [256]
000000 d5 14 29 3d c9 4c 8b 3d 88 76 5f bd 72 39 58 be
       0.041279633 0.06801755 -0.0545564 -0.21115664
000010 2f 6c 1d be 77 2e aa 3d 53 01 c3 bd 04 c4 f6 bb
       -0.153733 0.08309644 -0.09521737 -0.007530691
000020 a7 a0 4b be 86 03 74 3e fe 6c 1e be f1 ba 80 3d
       -0.19885503 0.23829469 -0.15471265 0.06285656
000030 54 2c 8f 3d c8 3b ce 3d b4 ec de 3c 63 83 6f bd
       0.06990877 0.10069996 0.027212478 -0.05847491
000040 7f 07 18 bd 97 a3 b2 bd d4 af 18 be c7 67 c6 3b
       -0.037116524 -0.087226085 -0.14910823 0.0060548517
000050 90 85 39 3e 8b 68 c4 ba c4 34 8f bd f4 7a fb 3d
       0.18117356 -0.001498477 -0.06992486 0.12279311
000060 dd ab d5 bd f9 dc b3 bc c7 bc 4e be 5e 0d 3a bd
       -0.10433171 -0.021955954 -0.201892 -0.045422904
000070 19 34 f4 bd 18 eb 86 bd 67 a3 07 be ae 00 ac 3d
       -0.11923999 -0.06587809 -0.13245927 0.08398567
000080 64 5b bb bc b4 b7 07 be 25 40 58 3d 16 a5 6a 3d
       -0.022870727 -0.13253671 0.052795548 0.057286344
000090 dc 4d 12 3e cc 71 f2 bc 4d 6c f5 3d 28 32 2d be
       0.14287513 -0.029595278 0.11983547 -0.16913664
0000a0 b5 4e 8f bc 77 e1 30 3e c8 2e 1d be db ec e0 3c
       -0.017493585 0.17273508 -0.15349877 0.027456691
0000b0 2f c1 2c be a2 5b de 3d 21 68 10 be 15 9f 88 3d
       -0.16870569 0.10857321 -0.14102222 0.066709675
0000c0 ad ba 2d 3d 81 c4 00 be 4a bc 24 be 8d cf ab bd
       0.042414356 -0.1257496 -0.16087452 -0.083891965
0000d0 72 1e 70 be 82 4e 57 bd 15 f7 29 bd 2c 5b f8 3d
       -0.23449114 -0.052565105 -0.0414954 0.12126765
0000e0 0b 3c 38 3e ce 29 48 bd 12 c5 7f 3d e5 8d 08 be
       0.17991655 -0.048867993 0.0624438 -0.13335378
0000f0 52 3d dc 3d ba 0c 8a 3d 56 d2 a6 bd f4 c0 51 3d
       0.107538834 0.06740709 -0.08145587 0.051209405
000100 62 f1 95 3d 3a bd 2c 3c f0 03 9c 3c 25 48 0c 3e
       0.07321431 0.010543162 0.019044846 0.13699396
000110 4c 01 1c 3e bc 7b bb bd 40 f5 c4 bd f1 6c 08 3b
       0.1523487 -0.0915446 -0.0961709 0.0020816887
000120 58 5f be bc 7e ca e9 3d 62 99 46 bd cd 31 cd 3d
       -0.023238823 0.114155754 -0.04848612 0.10019264
000130 51 70 12 be b1 2b ff bd 00 81 d2 bd df 07 46 3d
       -0.14300658 -0.12459505 -0.10278511 0.04834735
000140 55 d1 b2 bd eb 38 8a be 1f 52 06 be 08 d8 6f 3a
       -0.08731333 -0.2699655 -0.13117264 0.00091493176
000150 e2 ad a8 bd a8 ab 54 be 53 ac fc 3d de e4 7d 3d
       -0.082362905 -0.20768607 0.12337556 0.061985843
000160 0b 3d b1 be e9 63 ad bd 3b c7 84 be e4 a6 45 be
       -0.34616885 -0.08466322 -0.2593325 -0.19301945
000170 c9 8e 52 be 30 5f 1d be 01 e8 56 3e 90 fa e4 bd
       -0.2056228 -0.15368342 0.2098694 -0.111806035
000180 a8 44 5b bb 1a 7a 62 3d f2 d9 e5 bd 90 fd b6 3c
       -0.003345767 0.055292226 -0.112232104 0.022337705
000190 e1 ef 1a be 80 22 38 bd d7 d5 ae 3d da 0b ea bd
       -0.15130569 -0.044954777 0.085368805 -0.11428042
0001a0 5f b7 a9 3d 88 4e 49 be 8c 5a 96 3d d6 ad fe bd
       0.082869284 -0.19658864 0.07341489 -0.124355
0001b0 00 28 4d bd 94 9a 19 be 45 4a 5c be 8c 86 70 3d
       -0.050086975 -0.15000373 -0.21512707 0.058722064
0001c0 46 25 35 3c 90 5a 85 bd a9 89 29 3c 5b 77 88 3d
       0.01105625 -0.06511414 0.010347762 0.0666339
0001d0 2f 06 07 be e5 2b da bd 0e 20 ed bd 62 36 be bd
       -0.13185953 -0.106529035 -0.115783796 -0.092877164
0001e0 42 00 02 3e 67 ce cf bd b1 dc fd bd fd f6 12 be
       0.12695411 -0.1014679 -0.12395609 -0.14352031
0001f0 bb bc 9d bd 10 52 84 3c 0b 27 da 3c 1e a9 c1 3d
       -0.07702013 0.016152412 0.026629945 0.09456085
000200 f4 14 97 3d 2e 1a 0d 3c 39 63 86 bc 2b 83 39 be
       0.07377043 0.008612199 -0.016404735 -0.18116443
000210 8a d1 8b be e0 83 3d be af a1 91 be 2a 0a b5 bb
       -0.27308303 -0.18507338 -0.28443667 -0.0055248933
000220 07 3f 34 be 47 16 8f 3d 2a d3 f8 bd 57 96 a0 3d
       -0.17602168 0.06986671 -0.12149651 0.07841175
000230 a4 85 16 bd 67 56 c0 bd 24 84 1c 3c 6b f3 24 3d
       -0.036748543 -0.0939148 0.009552989 0.040271204
000240 01 02 94 3d 5f e2 a8 bc c3 a1 86 bd ce 6b c6 bd
       0.07226945 -0.020615755 -0.06573822 -0.09688531
000250 e7 37 84 bd 7d e3 a8 bd 8b 1b a6 bd 90 de a1 3d
       -0.06455975 -0.08246515 -0.08110722 0.079037786
000260 1f 8f ff bc d1 e8 d7 3c 2b 3c 49 3e ba 8d aa 3c
       -0.031196175 0.026356133 0.19651859 0.020819534
000270 ab 20 48 be ed f7 74 3d 0f 7f 58 be da 2e bc 3d
       -0.19543712 0.059806753 -0.21142219 0.09188624
000280 1a 23 65 be cd 7f 8a bc 54 76 62 be d9 cc 82 3d
       -0.22376671 -0.016906643 -0.22115451 0.06386728
000290 92 a6 13 be 4c 63 28 3d 78 23 ee bd 81 ca 87 be
       -0.1441901 0.041110322 -0.11627859 -0.26521686
0002a0 5f 4e 7d 3c 47 f6 e8 3c 8b 23 a8 bd a8 4f 39 bd
       0.01546058 0.028437747 -0.08209904 -0.04524198
0002b0 27 52 c8 3c 5d c7 cb 3c 07 ff a2 bc 6b e6 60 bd
       0.024453236 0.024875337 -0.019896997 -0.054907244
0002c0 cb d7 89 3d 41 48 e8 bc e2 7d bb 3d 8c 7d 2e 3e
       0.06730612 -0.028354766 0.091548696 0.1704008
0002d0 7e 52 38 bc 11 98 9c bd 0b 34 63 be e6 e9 25 3e
       -0.011250136 -0.07646192 -0.22187822 0.16202506
0002e0 9c 4f 11 be 8a 1a 3b be 9e 12 50 3d 43 8a f8 3d
       -0.14190525 -0.18271843 0.050799005 0.12135746
0002f0 36 36 44 3c a5 f4 09 be d1 d6 ae 3c 05 be 00 bd
       0.0119758155 -0.1347223 0.021342667 -0.031431217
000300 25 46 06 be 5a b9 e4 3b 16 83 6f 3d e0 7a bb 3c
       -0.13112696 0.0069801034 0.058474623 0.02288574
000310 ef 20 e3 3d 8c 55 46 be f1 a5 13 bd 54 7e 48 3e
       0.11090266 -0.19368571 -0.036046926 0.1957944
000320 e1 82 97 bc 19 23 14 be e6 e2 f3 bd 13 6f b6 bd
       -0.018495025 -0.14466514 -0.11908512 -0.089079045
000330 6c fe 60 bd fa 6f 9b bc 2b 6e 27 be 8b 39 ee 3c
       -0.054930136 -0.018974293 -0.1635062 0.029080173
000340 d5 1a 22 3e 93 90 32 bc 4a 43 f0 bc 5f fa 13 bd
       0.15830548 -0.010898727 -0.02932896 -0.036127444
000350 f4 0e 14 3e ab 35 9a bd 64 28 9d 3d 3b 92 1c 3c
       0.14458829 -0.075297676 0.076737195 0.009556348
000360 a1 4d f1 3d fe e3 4c be bb e7 43 bd 81 4b dc bd
       0.11782385 -0.20008847 -0.047828417 -0.10756589
000370 74 e0 b9 be 3d 57 a4 bd 34 13 6f be 5a e5 3a be
       -0.36304057 -0.08024452 -0.23347169 -0.18251553
000380 b6 49 89 bd ea 3f 9e 3c 4d 45 78 bd 1c 30 e6 bc
       -0.06703512 0.019317586 -0.060612965 -0.028099112
000390 b7 94 11 be fc 0c 81 bd 8f 6b d8 3c 95 7a 38 be
       -0.14216886 -0.06301305 0.026418475 -0.18015511
0003a0 f6 e8 0b 3d 3a e0 41 be 1e 38 9b bd 14 5f 6d bd
       0.034157716 -0.18933192 -0.07579063 -0.057952
0003b0 1f bb af bb 52 4f c2 3b 05 ef 1d be 11 e8 44 3e
       -0.0053628827 0.005929866 -0.1542321 0.19229151
0003c0 f1 79 bf 3d 92 0b cc 3d af cf 82 3d 5e 09 15 3e
       0.0934943 0.09963144 0.06387269 0.14554355
0003d0 73 59 03 bd bc 15 0a bd c0 24 af 3c ad db 79 3e
       -0.032067727 -0.033712134 0.021379828 0.24400206
0003e0 d9 f9 eb bd 03 b7 43 3d d3 e6 1c be d8 49 ac bd
       -0.11522264 0.047781955 -0.15322427 -0.08412522
0003f0 7e fa 90 bd 6b a9 52 be cb 5b a4 3d 1b 01 fb 3a
       -0.070790276 -0.2057244 0.080253206 0.001915011

mlp.4.weight f4 [128, 256]
000000 48 83 b3 3d a5 a3 eb bc 45 dc dd be c8 38 a8 be
       0.08765274 -0.028764555 -0.43332115 -0.3285582
000010 74 63 eb 3d f0 ff c3 3d ec 48 64 be 32 56 35 be
       0.114935786 0.095703006 -0.22293442 -0.17708662
000020 1a c6 db 3b fd 16 2a 3d 3b 62 49 3e fb c4 05 be
       0.006706965 0.04152583 0.19666378 -0.13063423
000030 0f 75 06 bd 40 87 cc bc 4b fc 91 3d 42 e7 df 3d
       -0.03282648 -0.024966836 0.07128199 0.10932781
000040 5a fe e1 3d be 67 e1 be 61 00 2c 3c 78 74 3e bd
       0.11034842 -0.44024462 0.010498137 -0.046497792
000050 2e 14 45 3e fa 14 d7 bc 97 9c 9b be 6d 63 c7 3d
       0.19245979 -0.02625512 -0.30392906 0.09735761
000060 af ec 52 be e1 c3 6e 3e 9b 44 40 3e 81 45 42 be
       -0.205981 0.2331691 0.18776171 -0.18971826
000070 ba 07 82 3e 5c 75 27 be a6 eb 83 be a6 51 6a bc
       0.2539652 -0.16353363 -0.25765723 -0.014301693
000080 35 83 98 bd 39 98 32 be 1b 5f 99 bd 51 4b 9b bb
       -0.07446901 -0.17440881 -0.07488843 -0.004739203
000090 8e 2c 88 bd 8e 56 28 bc 17 f4 7a bd fc a4 e1 bc
       -0.06649123 -0.0102745425 -0.06126794 -0.027544491
0000a0 1b 42 c5 3d 95 94 38 3d 99 7e b4 3d 53 0f 61 3a
       0.09631749 0.045063574 0.08813209 0.00085853523
0000b0 60 01 8f 3d ce be 1b bd ce f4 76 bd 30 48 22 3d
       0.06982684 -0.038023762 -0.060292058 0.039619625
0000c0 9b dd eb bd 5c fd 18 bc fd cd bc bc b9 f9 69 be
       -0.11516877 -0.009337749 -0.023047442 -0.22849168
0000d0 2a be 93 bd 71 f5 cc 3d d2 b6 7c bd 8d 30 bb 3d
       -0.07214005 0.10007752 -0.06169779 0.0914012
0000e0 c9 d0 c6 3d 40 1d 33 3d e5 94 4f bd 47 84 c4 3d
       0.09707791 0.043729067 -0.050679106 0.095955424
0000f0 19 56 ac be 3f 2c db 3d 99 7e b1 bd 23 bb fa bd
       -0.33659437 0.10701799 -0.08666725 -0.12242725
000100 e7 00 cd bd 3e 2c 92 bb fc 9b 27 3c 0b b9 02 3d
       -0.10009938 -0.0044608405 0.010230061 0.031914752
000110 ef f2 9a 3e f1 9d 6a bd 59 8c d6 bc 28 7c 3f bd
       0.3026347 -0.05727953 -0.02618997 -0.046749264
000120 d2 66 41 be 3a b6 09 3e 9f 98 c3 bc 13 3e 13 3c
       -0.18886879 0.1344842 -0.023876486 0.008986968
000130 8f 46 75 be fe a5 2a bd 73 e3 3c 3e a5 77 48 3d
       -0.23952697 -0.04166221 0.1844614 0.048942227
000140 69 f1 8f bd db 8d 9b bd 75 f4 c2 bc d9 70 71 bd
       -0.07028467 -0.07595416 -0.023798207 -0.05894551
000150 33 40 90 bd 19 9f 56 3e 3b 2e 7b be d1 bc a7 3c
       -0.07043495 0.20959128 -0.24529354 0.020475777
000160 f1 58 92 be 28 80 7d bd 23 6f fc be 14 90 3c 3e
       -0.28583482 -0.061889797 -0.4930354 0.18414336
000170 f7 73 89 be 7e c9 b9 bd 54 e3 1a be 51 16 66 3d
       -0.26846287 -0.09071635 -0.15125781 0.056173626
000180 7c 44 a5 3d 53 5c a3 3c 91 55 af 3d 4b 7b f9 bd
       0.08069703 0.019941485 0.08561242 -0.121817194
000190 a9 47 35 3e c2 3e 95 3e 52 5c 7e 3e ee 05 1b be
       0.17703117 0.29149443 0.24839905 -0.15138981
0001a0 16 f3 86 bd 3e 69 ca 3d e9 28 2b be e7 02 f8 3d
       -0.06589334 0.098833546 -0.16714825 0.121099286
0001b0 e1 94 a0 bd 2d c3 9e bc 1e 31 19 be be 4b 31 be
       -0.078408964 -0.019380176 -0.14960143 -0.1731405
0001c0 38 a2 07 be 10 8c 30 3e 51 0f f4 bb 68 96 b2 3c
       -0.13245475 0.1724093 -0.007448115 0.021800235
0001d0 b9 71 0d be 82 a5 08 bd d2 f6 f0 3c 1b fd 7b be
       -0.13812913 -0.033360966 0.029414568 -0.24608271
0001e0 c3 c5 c3 3c d6 47 dd 3d 1c 58 e0 3c 16 4a a9 be
       0.023898011 0.10804717 0.027385764 -0.33064336
0001f0 54 d2 7b be da 08 0d be 2c 35 2b be da 6b 85 3d
       -0.24591953 -0.13772908 -0.16719502 0.06514712
000200 e5 e5 64 3a df 65 2f 3e 3b 65 f3 3d 79 12 23 be
       0.0008731767 0.17128704 0.118845426 -0.15925016
000210 fa 72 e4 be 5b 7c d5 be b8 8e e8 bd 92 6f 64 3e
       -0.4461897 -0.41696438 -0.113553464 0.22308186
000220 bc 74 0f 3e a7 11 fe bb 0a 11 74 bb 8a 5a 9d 3d
       0.14009374 -0.007753569 -0.0037241601 0.076832846
000230 fc 19 0e 3e 8c 77 f6 bd 72 66 83 be ca 56 c5 3c
       0.138771 -0.120345205 -0.25664097 0.024089236
000240 df d1 54 be e4 c7 6a be 39 da ca 3c b3 4f 81 bd
       -0.20783184 -0.22927815 0.02476226 -0.063140295
000250 20 dc 4c 3e 6a a0 6a 3e 4a 3a 50 3c 2b 1a 32 3e
       0.20005846 0.22912756 0.01270921 0.17392795
000260 69 29 11 be 5b a3 f9 bd 42 f8 53 3c 13 8c ed bd
       -0.14175953 -0.12189361 0.012937607 -0.11598983
000270 12 85 a8 3d a8 37 bf bd 08 ad 5d be a8 e5 8f be
       0.08228506 -0.093367875 -0.21648037 -0.281049
000280 a6 f6 87 bd 35 06 67 3d 28 fd 52 3d fd ce fe bd
       -0.06638841 0.056402404 0.05151096 -0.12441824
000290 6b f8 43 3d 88 4a 16 3e 53 f7 24 be 42 d3 60 bd
       0.04784433 0.14676869 -0.16109972 -0.05488897
0002a0 48 4f f2 3c 89 48 83 bd 11 a0 57 be 77 0c 5c 3e
       0.02957882 -0.06410319 -0.21057154 0.2148913
0002b0 01 55 c2 bd 7d 1a 59 3e a8 e1 3e be 67 a7 c3 3d
       -0.094888695 0.2120151 -0.18640769 0.09553414
0002c0 71 b4 98 bd 5c d3 2a bc c7 6a ad 3d 5a fe af 3d
       -0.074562915 -0.010426369 0.08467632 0.085934356
0002d0 5d 5a 15 be 08 66 c8 bd 75 e4 05 be 7d 15 89 bb
       -0.14585252 -0.09785086 -0.1307543 -0.00418347
0002e0 ec a5 46 bc b0 cc 90 3e a1 a0 16 3e dd b3 d0 3c
       -0.01212452 0.28281164 0.14709713 0.02547639
0002f0 3f d7 85 be 2b ea d7 bd 65 a9 7d bd 2c d0 ef 3c
       -0.26140782 -0.10542711 -0.061929125 0.029274069
000300 72 e4 36 3e 31 21 57 be 1d 74 31 3e 73 ae cf bd
       0.17860582 -0.21008755 0.1732945 -0.101406954
000310 7f a4 54 3e 66 14 12 3d 51 eb d0 3d 31 80 6a 3c
       0.20765875 0.035663985 0.10201133 0.01431279
000320 b5 0d 86 3e ad 36 f9 3d 66 13 ed bd e8 43 2f be
       0.26182333 0.12168632 -0.115759656 -0.17115748
000330 c0 80 c2 3e d4 33 83 bd 71 48 ea 3d 64 5e 27 3e
       0.37988853 -0.0640637 0.11439598 0.16344601
000340 c1 9f a8 3c 66 5f 80 be 8a bb 59 3c c6 fb a8 3c
       0.02058399 -0.25072783 0.013289342 0.020627867
000350 34 b1 69 3d 53 12 9e 3d 1d 58 da 3d 3c 9e c4 bc
       0.05705376 0.07718339 0.106613375 -0.024001233
000360 e0 6b 14 be 26 94 79 bd 4c 95 d1 3c 6f 9a b1 3d
       -0.14494276 -0.0609323 0.025583886 0.08672034
000370 a3 ab b1 3d c1 7f 5a 3e a4 1c 82 be 64 6a ab bd
       0.08675315 0.21337797 -0.25412476 -0.08369902
000380 65 0c 58 be 0c 50 1a bc 11 63 e2 bd e7 f0 94 bd
       -0.21098478 -0.009418499 -0.11054052 -0.07272511
000390 b9 21 73 be af 55 99 bd 37 0a 2f bd 49 4c 70 bd
       -0.23743333 -0.07487046 -0.04273435 -0.0586665
0003a0 f4 9c 96 bd 8e 49 a1 bb d9 bf 59 3e bb 6e 04 3e
       -0.07354155 -0.0049220985 0.2126459 0.12932865
0003b0 83 26 dc 3e d6 d2 19 be b4 54 30 be 02 ab d0 3d
       0.42998132 -0.15021834 -0.17219812 0.10188867
0003c0 fd 36 74 be 92 43 46 3d 87 11 e9 be a6 d4 8a 3d
       -0.23849101 0.048404284 -0.45521185 0.06778841
0003d0 27 7e 3c be a5 82 16 bd 77 40 34 bc 78 42 27 be
       -0.18407498 -0.036745686 -0.011001698 -0.1633395
0003e0 db c0 a5 bd 84 29 b3 bc 79 46 cb bd 2e dc 26 bd
       -0.08093425 -0.021870382 -0.09925551 -0.040737323
0003f0 14 bc 14 3e e5 b5 37 3e 46 15 39 3e 09 ab f1 3d
       0.14524871 0.17940481 0.18074521 0.118002005

mlp.4.bias f4 [128]
000000 36 f7 77 3d 46 d7 82 3d c9 12 f3 bd 32 b7 d3 bb
       0.060538493 0.063887164 -0.11868817 -0.0064610476
000010 e8 8b 8b 3d 2b a9 97 bd dc 96 18 3e f1 d2 8c be
       0.068137944 -0.07405313 0.14901298 -0.27504686
000020 5d cd 14 be db d1 d8 bd 54 1e 9f bd d5 6c 2d bd
       -0.14531465 -0.10586902 -0.077694565 -0.04234012
000030 d2 61 fa bd af 33 e0 3c 62 7e 24 be 72 ec d0 bd
       -0.12225689 0.027368395 -0.16063836 -0.10201348
000040 16 db c1 bd 7d 21 8d be 4d 11 63 3d 6f d1 6c 3d
       -0.094656155 -0.27564612 0.05543642 0.05781692
000050 70 35 1e 3d 96 15 a5 bd 55 02 0b 3d 0c cf fc 3c
       0.03862518 -0.08060758 0.03393777 0.030860446
000060 80 16 29 be 45 b8 0c 3d b9 75 2d be d5 60 53 3d
       -0.1651249 0.03435542 -0.16939439 0.051606018
000070 72 dc cb 3d ff 2c 1f bc 42 b3 00 be e0 0a 9a bd
       0.09954156 -0.009715318 -0.12568381 -0.075216055
000080 79 ef 06 bd 26 f6 bf bc 02 6a 7d 3d f2 79 17 be
       -0.032943223 -0.023432802 0.061868675 -0.14792612
000090 b0 83 51 bd 0a 68 50 bd 77 b8 0e be fb d7 39 be
       -0.051150978 -0.05088047 -0.13937555 -0.18148796
0000a0 26 1a 66 bd 6e 89 28 be b0 94 d9 3d b6 41 98 be
       -0.05617728 -0.16458675 0.10624063 -0.29737633
0000b0 8d 0b 70 3e f2 33 ca 3c a0 60 91 bd de ac 93 bd
       0.23441906 0.024682973 -0.07098508 -0.07210706
0000c0 40 5d 81 bd be db 8f bd 2f 25 00 be 4c 93 83 bd
       -0.06316614 -0.07024334 -0.12514184 -0.06424579
0000d0 1b 76 ad 3c b2 13 cc bc 70 57 c0 3d e5 4d f0 3c
       0.021174481 -0.024911735 0.093916774 0.029334018
0000e0 45 f5 28 3e 45 f3 e7 3d db 4f 4f be 5b ca 4b be
       0.16499813 0.11325697 -0.20245306 -0.19901411
0000f0 95 f5 29 bc 01 9b 20 3e 82 ca 54 3a 55 aa 3b be
       -0.010373493 0.1568413 0.0008117334 -0.18326695
000100 92 d3 aa 3d f1 f0 94 3d 66 28 d6 bc 1c d2 08 be
       0.08341135 0.072725184 -0.02614231 -0.133614
000110 04 6b 26 3d 87 45 05 be d3 86 22 bd c2 37 22 3d
       0.0406294 -0.13014804 -0.03967936 0.039603956
000120 a8 c7 e4 bd 85 6a 13 3d c5 ec 38 bc 84 41 cd 3d
       -0.11170894 0.035990257 -0.011286919 0.10022262
000130 0d a9 fd 39 b5 0e 8d bd 40 10 6d bd 80 2d ae 3d
       0.00048381873 -0.06887571 -0.057876825 0.08504772
000140 59 80 16 bd b3 8d 8c bd 67 a8 12 be df db 82 3d
       -0.036743496 -0.068629645 -0.14322053 0.06389593
000150 a1 29 e9 bd b7 c7 90 bd 6f 27 5f bd 33 f9 18 be
       -0.11384893 -0.070693426 -0.054480966 -0.14938812
000160 2d 31 05 bb b1 1a a7 3d d5 61 78 3d 33 ee 9b bd
       -0.00203235 0.08159388 0.060640175 -0.07613792
000170 91 8b c4 3d c9 b6 3d 3d 39 86 be bd ee 8c 63 3d
       0.09596933 0.046316896 -0.09302945 0.055554323
000180 ca a2 b4 3c 97 db f6 bc 2e 8e 80 3d 61 9c e2 3d
       0.02205028 -0.030134005 0.062771186 0.11064983
000190 50 2e 98 3d b2 f8 55 3d 1f f9 a2 3d d6 30 11 be
       0.074307084 0.052239127 0.07957672 -0.14178786
0001a0 68 40 b2 bc 8f 99 33 3d 18 d4 78 be e2 e6 25 3c
       -0.021759227 0.043847617 -0.24299657 0.0101258475
0001b0 0f 42 0e 3e 19 54 80 3d a3 4b 9e 3d 7f 7b 5b bc
       0.13892387 0.0626604 0.0772927 -0.013396143
0001c0 c3 d9 20 3c b1 7c 5e 3d 23 07 85 bd e8 91 7c 3b
       0.009817543 0.054318134 -0.06495502 0.0038539115
0001d0 17 73 ef bd 2d 2c c2 bd a4 7b ff 3b bc 20 e2 3d
       -0.116918735 -0.09481082 0.0077967215 0.110414
0001e0 33 7b d5 bc 94 85 24 bd a5 87 23 bc a8 22 56 bd
       -0.026059723 -0.040166453 -0.009981071 -0.052279145
0001f0 81 2d 8a bd fa 42 50 bc d6 7c d9 bb 03 25 d5 bd
       -0.067469604 -0.012711281 -0.006637196 -0.1040745

mlp.6.weight f4 [2, 128]
000000 bd 5e 8e 3b 5f cb 0b 3f 45 d2 b3 3e 28 b3 61 3d
       0.00434479 0.54607195 0.3512136 0.055102497
000010 c3 bd 7f 3e cb 39 e4 be 06 15 ae 3c 87 e8 a0 3d
       0.24974732 -0.44575343 0.02125026 0.07856851
000020 10 0b 8f bd 59 9f c6 be 87 74 d2 be 7a ce 6e 3e
       -0.06984532 -0.38793448 -0.41104528 0.23320952
000030 e7 a6 ad 3d c6 92 40 be e0 e6 0d bf 33 42 a6 be
       0.084791 -0.1880599 -0.5543041 -0.3247238
000040 bd fa 0d 3e 69 80 92 be 04 53 9b be ed 02 16 3c
       0.1386518 -0.28613594 -0.30336773 0.009155971
000050 71 e5 2c 3e eb c7 ae 3e ca da db bc 9f d9 6a be
       0.168844 0.341369 -0.026837725 -0.22934578
000060 13 f6 2e bf bc 87 4a 3e d1 e6 b0 be 84 4f 1f 3f
       -0.6834423 0.19778341 -0.345511 0.62230706
000070 a2 67 57 bc ac 80 86 bc 3f 64 47 be 8e 96 06 3e
       -0.013147267 -0.016418777 -0.19471835 0.1314337
000080 90 2e 1d be 6c 4d 21 bf 32 c2 ab be 51 92 70 bc
       -0.15349793 -0.6300876 -0.33546597 -0.014683322
000090 a2 4e 75 bd 65 14 b2 be 51 37 5f be f5 fc 06 bf
       -0.059889443 -0.34781185 -0.21798445 -0.5272973
0000a0 ad 6e 96 bd e5 eb d7 bd 6b 6f 28 bf 9e 91 11 bf
       -0.073453285 -0.1054304 -0.6579501 -0.5686282
0000b0 64 fa 4a 3d ad d0 4c bd 26 e1 02 3f da 48 ae be
       0.049555197 -0.050003696 0.511248 -0.34039956
0000c0 4d ac 21 bf d2 99 d2 bd b4 4c bf be 31 54 98 be
       -0.63153535 -0.10283245 -0.37363207 -0.29751733
0000d0 69 f2 0f bd 75 89 2c be ee 4e a5 3e 75 5e 05 bf
       -0.03514329 -0.1684931 0.3228678 -0.52097255
0000e0 c2 76 33 3e 91 88 a7 3e 41 ad 14 bf eb c4 9d 3e
       0.17525771 0.3272138 -0.58076864 0.308143
0000f0 fd 94 08 bf 95 ef b8 3d c0 d7 f7 3d 9b 79 0f be
       -0.5335234 0.09030072 0.12101698 -0.14011233
000100 22 09 20 3c e0 23 be bc 61 76 12 3f 38 29 dd 3e
       0.009767802 -0.023210466 0.5721188 0.4319551
000110 f1 65 e9 3d 05 2a fb be db bd d4 be 2c bd 2d bf
       0.11396397 -0.49055496 -0.41551098 -0.6786678
000120 00 11 3d bf 73 a2 42 be a7 47 99 3e 03 8e 46 bc
       -0.73854065 -0.19007282 0.2993748 -0.012118819
000130 0a e2 23 3e 7a 2a 84 3e 34 d5 9b be cf e3 26 bd
       0.16004196 0.25813657 -0.304361 -0.0407446
000140 80 47 69 3e e2 e7 d4 be 41 43 10 be 05 17 10 3e
       0.22781181 -0.41583163 -0.14088155 0.14071281
000150 83 02 20 bd 85 af 2a bf b8 ac f7 be 1f 31 a3 bd
       -0.039064895 -0.6667407 -0.4837396 -0.079683535
000160 f7 7a 85 be 4e 2e b9 be 9a 4a a0 be 17 5d 04 3f
       -0.26070377 -0.3616814 -0.31306916 0.51704544
000170 4a f2 31 bb bb 6c de be c3 78 bb 3d c7 2c 12 3e
       -0.0027152472 -0.4344233 0.09153893 0.14274894
000180 46 59 9d 3e 07 bb 39 3e 50 28 a4 3e 71 5f 3f be
       0.30732173 0.18137752 0.32062006 -0.18688752
000190 03 02 23 be 80 ce 57 3d 3e 71 4d 3d 13 1c bd be
       -0.15918736 0.052687168 0.050156824 -0.3693548
0001a0 44 88 21 bd e3 ef 06 3e 73 7d 80 3e 22 d4 e1 be
       -0.039436594 0.13177447 0.2509571 -0.44107157
0001b0 ea f6 04 3f 01 58 be 3d 1f 6a f4 bc b8 8a 9d bd
       0.5193926 0.09294129 -0.029835759 -0.07692474
0001c0 45 39 a6 3e 0f e0 01 3e 0e da 98 3e b5 57 f1 bb
       0.32465568 0.12683128 0.29853863 -0.007365192
0001d0 68 fe 94 3d 77 40 13 bf 29 60 18 bf f7 14 13 bf
       0.07275087 -0.5752024 -0.5952173 -0.57453865
0001e0 8d 7a e8 be 98 91 be bc 09 30 1c 3d 10 c9 04 3d
       -0.45406 -0.023262784 0.038131747 0.03241831
0001f0 d0 94 d0 be 29 06 79 3e 1b 71 83 bd 7a df 6c 3c
       -0.40738535 0.24318756 -0.064180575 0.014457578
000200 d2 88 71 be 8b 8c 57 3e b1 ed e9 3e 0b a6 e7 3e
       -0.23587349 0.21049707 0.45689157 0.45243868
000210 22 8f 70 be a7 22 86 bd 4d ca 46 3f 8f 19 9c 3e
       -0.23492101 -0.06549578 0.77652436 0.3048825
000220 fe 0e 91 3e c7 8d ee 3d 8d 13 1b 3c 64 be c4 3b
       0.2833175 0.11648136 0.0094651105 0.0060041416
000230 1a 2c ac be 34 6b d3 be 40 fb 20 be 43 fe 9f bd
       -0.33627397 -0.41292727 -0.15720844 -0.078121684
000240 30 17 b4 3e 38 2a c1 bd ba 8f 12 bf a6 d3 de be
       0.3517394 -0.09431881 -0.5725056 -0.4352085
000250 03 35 77 3e e7 5b bf 3d 50 fe 1b bf 4f 55 a8 be
       0.24141316 0.09343701 -0.60934925 -0.32877585
000260 8e 43 44 be 9e d9 9d 3e 91 bc de be e7 fb 89 be
       -0.19166395 0.3083009 -0.4350324 -0.2695
000270 c9 c5 c8 3e 03 1b 89 3e fd 8f ae be c4 d2 b2 3e
       0.39213398 0.2677842 -0.3409423 0.34926426
000280 66 e1 d7 be be 70 01 3e fa 72 99 be 80 6d ea be
       -0.42164153 0.12640664 -0.29970533 -0.45786667
000290 90 03 0f bf a7 3e aa 3e a8 6a 02 bd 87 b2 93 3e
       -0.5586481 0.33250925 -0.031839997 0.28847143
0002a0 2c 7d fa bd 02 30 04 bf 9c 29 46 3e 9c 32 a2 bc
       -0.12230906 -0.51635754 0.1935181 -0.019799523
0002b0 63 42 3f 3f b4 a7 69 3e 00 3b 1c 3e b1 bf b2 be
       0.74710673 0.2281788 0.15256882 -0.34911874
0002c0 59 e0 b6 3d b3 9e 05 3f b7 f2 2f 3e 3c 7a f9 be
       0.0892951 0.5219528 0.17182432 -0.4872607
0002d0 33 f9 15 3f 0a 11 e3 be c1 72 d3 bd 00 d5 98 be
       0.5858337 -0.44348937 -0.10324622 -0.29850006
0002e0 d8 80 62 be b1 1f 31 be 5c c0 ff be 56 2a 85 be
       -0.22119462 -0.17297246 -0.49951446 -0.26008862
0002f0 f7 c4 23 3f 9f c4 e3 bd 33 ef e3 bd f5 09 ee be
       0.6397242 -0.11121487 -0.11129608 -0.46491972
000300 13 b6 05 bf 1c 0b 29 3f da 7f 0f 3f 8e 4e e2 be
       -0.5223095 0.66032577 0.5605446 -0.44200557
000310 77 c1 8d be 0e 88 ef 3d c7 57 00 3f 1a 37 a1 bc
       -0.27686664 0.11695872 0.5013394 -0.019679595
000320 8f 27 ae bd 30 22 be be 37 67 2b 3d e0 17 ad 3e
       -0.08503639 -0.37135458 0.04184648 0.33807278
000330 9c 5f 07 be fb 77 58 be b0 d3 8e be a2 4f f6 3e
       -0.13220066 -0.21139519 -0.2789588 0.4810763
000340 f4 df df bd ec 4a ea 3d bc e3 8e 3e b7 44 2c bd
       -0.109313875 0.114400715 0.27908123 -0.04205772
000350 24 a4 aa be 2c 20 45 be 0c 69 64 be 14 ea 7a 3e
       -0.33328354 -0.19250554 -0.22305697 0.24503356
000360 d9 33 8a be ea ab 9a be f6 2e 40 be 77 5e 78 bc
       -0.26992682 -0.30209285 -0.18767914 -0.015159241
000370 0c b9 ab 3e a5 1c c5 bd 3f 57 bf 3e 7f d2 69 3e
       0.33539617 -0.09624604 0.3737125 0.22834204
000380 96 7c c4 3e b4 09 fc be f8 b1 82 3c 44 e1 29 be
       0.38376302 -0.49226153 0.015954003 -0.16589838
000390 14 ec ea 3e 14 18 62 be a1 de f1 3e 9a e4 5f 3c
       0.45883238 -0.22079498 0.47240165 0.013665343
0003a0 ed 07 c7 3e 10 58 8b be 4a aa 03 bf 2e 4a 30 bf
       0.38873234 -0.27215624 -0.51431715 -0.6886319
0003b0 23 e4 98 3d 7d 08 18 3f ca 9a 80 3e 30 f8 c0 be
       0.074653886 0.5938795 0.25118095 -0.37689352
0003c0 20 7c 31 3f 8f 1e b7 be 18 ea 07 3f 38 56 eb be
       0.69330025 -0.35765502 0.53091574 -0.45964217
0003d0 1e ce 81 3e d4 a6 0e bf 4b 42 06 be 24 2f d4 be
       0.25352567 -0.5572331 -0.13111226 -0.41442215
0003e0 c6 39 ea 3d d8 a1 ac 3e d5 86 ff 3d 63 7d 28 3f
       0.11436801 0.33717227 0.12476889 0.65816325
0003f0 9a e6 85 3e 0e a8 9b be f3 77 2d bf a9 5d 09 3f
       0.26152498 -0.30401653 -0.67761153 0.5365854

mlp.6.bias f4 [2]
000000 4d 15 c1 3d 71 33 3d bd
       0.09427891 -0.046191636
