maddpg_actor_1.pth (torch, 280916 bytes, 8 tensors)

mlp.0.weight f4 [128, 24]
-0.18937239 0.45332798 -0.044130333 0.106929556 0.07672551 -0.30751377 -0.0148982825 -0.022814784
-0.10999865 0.3359795 -0.09126702 0.0075317975 0.029940166 -0.27140287 -0.079600185 -0.012678016
-0.11611749 0.39954522 0.063876726 -0.20295022 0.06336881 -0.31808257 -0.009820403 -0.20036635
0.32438526 -0.07342285 0.028529923 -0.072085105 -0.4264154 -0.3062377 -0.018034521 -0.15884703
0.17586441 -0.00944399 0.023213744 -0.18929984 -0.044437163 -0.30360228 -0.0022881087 -0.109084815
0.05078846 0.008807592 -0.1574278 0.1258473 0.2654382 -0.24805667 -0.20358032 0.15983544
-0.08406826 -0.21817267 -0.037290927 -0.18426946 -0.28487813 -0.060862202 -0.029009223 -0.16207376
0.001319636 -0.124409914 -0.07634977 -0.02474555 -0.08843943 -0.058508944 -0.079253614 -0.0032616968
-0.06554834 -0.106550105 -0.024791563 -0.0155167375 0.22927564 -0.019606477 -0.09293546 -0.0027408293
-0.14376295 0.09325829 -0.02188573 0.016897304 -0.16143523 0.040887523 -0.008018581 -0.015266931
0.060665645 0.14514631 -0.04641692 0.0058709495 0.25751874 -0.30917305 0.0037685637 0.09186054
0.024302915 0.24149364 0.17766467 0.061124373 0.38853276 -0.4098507 0.08043916 0.030385586
0.23116097 -0.28078002 0.123848565 0.060123622 0.395738 -0.021564147 -0.008084632 -0.023163542
0.1314403 -0.41085958 0.02204942 -0.17030652 -0.10047398 0.04626759 0.09473654 -0.11876508
0.028332628 -0.21944919 -0.07214195 -0.15367122 -0.37080768 0.151646 -0.061197836 -0.19375789
0.0002037371 0.19124855 -0.012553087 -0.16447505 0.4038982 0.03821224 0.0067753876 -0.12316408
-0.08611273 0.10343314 0.006715579 0.14372884 -0.084201366 0.13439222 -0.03240262 0.124165185
0.0035278278 0.15148443 -0.06270405 -0.021496078 -0.2757809 0.2251311 -0.025714092 -0.04154623
0.14257562 -0.26347613 -0.10956786 0.007059537 -0.10284335 -0.19703221 -0.16198751 -0.03711314
0.38450438 -0.21466745 0.12442776 -0.08424999 -0.017400159 -0.46927476 0.19702111 0.024702845
0.3624092 -0.3027318 0.03448541 -0.003153696 0.06080919 -0.82448006 0.08608547 0.031015545
-0.028807227 0.055769082 0.016267592 -0.03350176 0.012996899 -0.22855124 0.020022113 -0.013885685
0.021140222 0.22131595 -0.085825436 0.19985794 0.25040972 -0.30797783 -0.07130833 0.2543399
0.005330621 0.083336286 -0.16755697 -0.08498818 0.3869159 -0.31458193 -0.2771485 -0.009357977
0.17853767 0.1767593 -0.028016422 0.29603422 -0.07907384 -0.13844296 -0.02097568 0.44741184
0.11961783 0.17402409 -0.025107935 0.12368886 -0.005049564 0.06546474 0.04266752 0.15887585
0.05193537 0.15992029 0.036395047 -0.44186702 0.20428261 0.2047303 0.07388772 -0.43084678
0.1117585 -0.613602 0.04865863 0.09985067 -0.20484334 -0.24597535 -0.046438392 -0.012156387
0.14605048 -0.48959604 0.059690967 -0.12404285 -0.07909246 -0.2583863 0.13799298 -0.12989697
0.21389982 -0.585194 0.025264153 0.012431933 -0.083470985 -0.3841363 0.0059146797 -0.047550634
0.039394725 0.172964 -0.044095207 -0.30177233 -0.28375003 -0.45709532 -0.10122749 -0.25512043
-0.07791439 0.20153327 0.020094937 -0.01888712 -0.05590295 -0.3713367 -0.058667146 -0.08254929
00000000: d6ea 41be 9b1a e83e 02c2 34bd e2fd da3d
00000010: 4422 9d3d 7272 9dbe ed17 74bc 12e6 babc
00000020: f946 e1bd 8105 ac3e 34ea babd 4ccd f63b
00000030: 1445 f53c 51f5 8abe 6c05 a3bd 74b7 4fbc
00000040: 02cf edbd 3191 cc3e cdd1 823d 2fd2 4fbe
00000050: 82c7 813d b8db a2be c1e5 20bc d62c 4dbe
00000060: d315 a63e b85e 96bd 96b7 e93c 5ba1 93bd
00000070: 1f53 dabe 30cb 9cbe 22bd 93bc cca8 22be
00000080: cd15 343e f7ba 1abc c02a be3c d1d7 41be
00000090: be03 36bd c271 9bbe 18f4 15bb dc67 dfbd
000000a0: 8f07 503d b84d 103c c134 21be 1dde 003e
000000b0: 84e7 873e 9102 7ebe 5c77 50be e7ab 233e
000000c0: fb2b acbd a868 5fbe 5fbe 18bd 22b1 3cbe
000000d0: 8cdb 91be a54a 79bd c0a4 edbc aaf6 25be
000000e0: a3f7 ac3a a0ca febd 455d 9cbd 2eb7 cabc
000000f0: bb1f b5bd 13a7 6fbd b84f a2bd 31c2 55bb
00000100: 353e 86bd f136 dabd ad17 cbbc ea39 7ebc
00000110: 3cc7 6a3e c39d a0bc f254 bebd 7c9f 33bb
00000120: 9836 13be 34fe be3d b449 b3bc 376c 8a3c
00000130: 474f 25be ad79 273d 5e60 03bc 2622 7abc
00000140: 8a7c 783d 3ca1 143e ab1f 3ebd 1861 c03b
00000150: 7fd9 833e ee4b 9ebe 02fa 763b 6121 bc3d
00000160: e816 c73c 1c4a 773e baed 353e 8d5d 7a3d
00000170: c4ed c63e f3d7 d1be 49bd a43d 31eb f83c
00000180: 76b5 6c3e 66c2 8fbe 51a4 fd3d 3044 763d
00000190: 2c9e ca3e 4ba7 b0bc 6875 04bc 78c1 bdbc
000001a0: 4998 063e 305c d2be fca0 b43c d564 2ebe
000001b0: 4dc5 cdbd 1683 3d3d 3b05 c23d 1b3b f3bd
000001c0: d419 e83c 4ab7 60be 29bf 93bd fd5b 1dbe
000001d0: 81da bdbe 1749 1b3e 95aa 7abd 7868 46be
000001e0: 43a2 5539 a9d6 433e 77ab 4dbc 266c 28be
000001f0: bfcb ce3e 7084 1c3d 1204 de3b 733d fcbd
00000200: df5b b0bd c1d4 d33d 5c0e dc3b a72d 133e
00000210: c471 acbd 1d9e 093e 9cb8 04bd 514a fe3d
00000220: 2133 673b bc1e 1b3e fb6a 80bd 8b18 b0bc
00000230: 2733 8dbe c488 663e 5ca6 d2bc 612c 2abd
00000240: 58ff 113e 58e6 86be 1d65 e0bd b053 e73b
00000250: 899f d2bd d0c2 49be 0ee0 25be f303 18bd
00000260: c2dd c43e c9d1 5bbe fbd3 fe3d 428b acbd
00000270: c78a 8ebc c844 f0be e7bf 493e 9f5d ca3c
00000280: b38d b93e aaff 9abe 9340 0d3d 3dae 4ebb
00000290: 0f13 793d 2011 53bf 944d b03d 5014 fe3c
000002a0: 22fd ebbc 1f6e 643d 9d43 853c 2439 09bd
000002b0: f2f0 543c 5609 6abe 6a05 a43c c980 63bc
000002c0: 422e ad3c a6a0 623e 3fc5 afbd 8fa7 4c3e
000002d0: b435 803e 45af 9dbe 1a0a 92bd d738 823e
000002e0: 7dac ae3b 37ac aa3d 0e94 2bbe 480e aebd
000002f0: d719 c63e e210 a1be 68e6 8dbe 3352 19bc
00000300: 94d2 363e 6400 353e b282 e5bc cc91 973e
00000310: 77f1 a1bd fec3 0dbe 30d5 abbc 2a13 e53e
00000320: 31fa f43d 5f33 323e 28af cdbc 9650 fd3d
00000330: d076 a5bb 6112 863d 23c4 2e3d 5ab0 223e
00000340: 2fba 543d 25c2 233e f912 153d 653c e2be
00000350: 762f 513e d2a4 513e 7252 973d f397 dcbe
00000360: a4e1 e43d 0515 1dbf 464e 473d 827e cc3d
00000370: 74c2 51be f6e0 7bbe 2f36 3ebd 952b 47bc
00000380: 428e 153e 55ac fabe 847e 743d 2e0a febd
00000390: 3afb a1bd 364b 84be 084e 0d3e b603 05be
000003a0: 8e08 5b3e 46cf 15bf c5f6 ce3c 4eaf 4b3c
000003b0: d6f2 aabd 83ad c4be eecf c13b 74c4 42bd
000003c0: 5d5c 213d 7a1d 313e 2d9d 34bd e781 9abe
000003d0: af47 91be 6608 eabe 5c50 cfbd 259f 82be
000003e0: 9491 9fbd bd5e 4e3e 239e a43c 29b9 9abc
000003f0: 7efa 64bd d81f bebe f64c 70bd 9a0f a9bd

mlp.0.bias f4 [128]
0.19033368 0.114770904 -0.34822938 -0.17908593 0.11596866 -0.24967429 -0.03338878 -0.13260388
-0.037586547 0.124899 0.041503377 0.27202722 -0.012558658 -0.09787498 -0.05845046 -0.16075638
-0.22220181 -0.0056278673 -0.1564715 -0.11185145 -0.113393605 0.072523005 -0.20098983 -0.12951264
-0.37048388 0.09376793 -0.08709035 0.1199007 -0.35252073 -0.04898589 0.18115509 -0.043088812
0.15955602 -0.17340982 -0.05582968 0.079085216 0.1151872 -0.149112 -0.049215727 -0.06969383
-0.11596883 -0.017252443 0.008256726 -0.17729922 0.122209914 -0.3088026 0.045312002 -0.23793255
0.17850186 -0.13785078 -0.06848275 -0.3761825 0.18371058 -0.25987676 -0.009760271 -0.30340406
0.013112291 -0.0507097 -0.3383611 -0.09820362 0.04441259 -0.18596628 -0.030278819 0.022130225
-0.069161125 0.0077489777 0.085099526 -0.08251139 -0.16004181 -0.05553235 0.20223515 -0.07173584
0.008358318 -0.25362155 -0.09956584 0.010641335 -0.35653913 -0.2435096 -0.04439835 -0.041812368
-0.30292675 -0.2455328 0.07508991 -0.16276291 0.06353275 -0.07825085 -0.20184189 -0.18490821
0.2875707 -0.12241372 -0.17977096 -0.02169767 -0.03953719 0.053872127 0.019291675 -0.1418515
-0.09208854 -0.1346439 -0.01758187 -0.1252969 -0.039077725 -0.07432842 0.10856611 -0.1257279
-0.15668671 -0.048989773 0.16635624 -0.22993286 0.04167532 0.032170817 -0.17737463 -0.11189934
0.079624236 0.12273193 -0.17599131 0.009979857 -0.1484139 -0.1305287 -0.009325278 -0.3018949
0.25512594 0.042756096 0.0619819 0.039606962 -0.1439564 -0.0037567073 -0.10036804 -0.2081086
00000000: d5e6 423e 020d eb3d 1f4b b2be 4d62 37be
00000010: fa80 ed3d 9eaa 7fbe acc2 08bd 50c9 07be
00000020: 5af4 19bd 0ccb ff3d 72ff 293d 2747 8b3e
00000030: d4c2 4dbc ad72 c8bd c069 6fbd 529d 24be
00000040: df88 63be f969 b8bb 113a 20be 5f12 e5bd
00000050: e83a e8bd f186 943d 47d0 4dbe f69e 04be
00000060: 10b0 bdbe 6709 c03d 6d5c b2bd 808e f53d
00000070: 997d b4be 6ea5 48bd b880 393e e57d 30bd
00000080: a762 233e 5892 31be aaad 64bd 6ef7 a13d
00000090: 44e7 eb3d d1b0 18be 6e96 49bd a4bb 8ebd
000000a0: 1181 edbd ff54 8dbc 3847 073c ed8d 35be
000000b0: 3149 fa3d 601b 9ebe 1499 393d 97a4 73be
000000c0: 31c9 363e c128 0dbe af40 8cbd fe9a c0be
000000d0: a01e 3c3e 910e 85be 8be9 1fbc c757 9bbe
000000e0: efd4 563c f9b4 4fbd ab3d adbe fb1e c9bd
000000f0: fae9 353d f26d 3ebe 490b f8bc 724a b53c
00000100: 59a4 8dbd 23eb fd3b a948 ae3d bbfb a8bd
00000110: 00e2 23be e475 63bd bb16 4f3e 3dea 92bd
00000120: 54f1 083c afda 81be 2de9 cbbd fe58 2e3c
00000130: 4c8c b6be 955a 79be 0bdb 35bd 7243 2bbd
00000140: 3719 9bbe f36c 7bbe bdc8 993d 52ab 26be
00000150: 751d 823d fb41 a0bd a4af 4ebe 9458 3dbe
00000160: 773c 933e 0bb4 fabd e115 38be 50bf b1bc
00000170: c0f1 21bd 05a9 5c3d 9309 9e3c 8541 11be
00000180: eb98 bcbd 17e0 09be db07 90bc d54d 00be
00000190: f70f 20bd 8039 98bd e957 de3d d1be 00be
000001a0: 7b72 20be 80a9 48bd 4a59 2a3e 8573 6bbe
000001b0: beb3 2a3d 8cc5 033d b2a1 35be 7b2b e5bd
000001c0: 0812 a33d e15a fb3d 1137 34be 8e82 233c
000001d0: d0f9 17be 51a9 05be 0dc9 18bc f891 9abe
000001e0: de9f 823e 0421 2f3d bce0 7d3d e93a 223d
000001f0: 4e69 13be 1733 76bb c28d cdbd 6c1a 55be

mlp.2.weight f4 [256, 128]
0.055940345 0.16954815 0.029888669 -0.18006615 0.045114942 0.009078615 -0.09634182 0.0068006897
-0.11547981 -0.012460387 0.1328561 0.34150624 -0.28469688 -0.010936043 -0.17023137 -0.11660616
0.072775915 -0.06599386 -0.029641446 0.005735911 0.15281628 0.09171427 0.042109624 0.24175936
-0.058765713 0.1325966 0.036587123 -0.017808603 0.06795583 0.107044615 -0.11410252 -0.26565027
-0.059695087 0.03812925 -0.084820926 0.06904238 -0.21584588 0.01611534 -0.64311224 -0.08537478
-0.14129263 0.24407613 -0.2758106 0.14877374 -0.028463492 0.25750107 0.21998386 0.09206685
-0.064261615 0.17451839 0.22526467 0.021605218 0.08091716 -0.17048743 -0.31546077 -0.13396333
-0.06584777 -0.01747928 -0.21748129 -0.26005775 -0.027901324 -0.019303173 -0.04053831 0.08859031
0.0022342424 -0.09228723 0.03405353 0.07449176 -0.21764433 -0.13960665 0.12603673 -0.17276472
-0.07164144 0.015443687 0.033241685 -0.12189062 -0.21264435 0.0887497 0.14106148 -0.14421827
-0.41250646 0.033285018 0.18037249 0.04583803 -0.04429016 0.050851114 -0.17667891 -0.01843448
0.10797533 0.12418477 0.00022424593 -0.24885605 -0.03084195 -0.0633093 -0.17564146 0.065348655
0.02322398 -0.06288423 -0.14288557 -0.087728456 0.1958109 0.03916994 -0.09343164 -0.005292116
0.08854743 -0.07837041 -0.040848654 0.06887417 -0.2514243 -0.18714389 -0.057786416 -0.025125718
0.35655937 -0.16590665 -0.24183382 0.4817964 -0.012400813 0.060778733 0.059989057 -0.065284945
-0.1322134 -0.11925936 -0.16504945 0.07685346 -0.008836081 -0.3160308 0.016485818 -0.1958074
-0.1799735 -0.4152879 -0.0056567034 0.09422066 -0.11832844 -0.04703975 -0.27114522 -0.014510317
-0.15608007 0.10949204 -0.1795699 -0.17599553 -0.059225287 -0.02948416 -0.0022830237 0.22967713
-0.101632215 0.087072335 -0.39683625 -0.27530944 0.006938157 0.23332953 -0.1873913 -0.1281493
0.10013951 0.119413406 -0.11801209 -0.0523902 -0.27127007 0.011866557 -0.31181493 0.10070537
0.113571174 0.15257865 -0.2015398 -0.32851976 0.087618075 0.158006 0.15939362 -0.16672488
0.0052046278 -0.056537393 -0.008672231 -0.3752934 0.0052292575 -0.118609644 -0.050030377 -0.03639064
-0.23019886 0.030271854 -0.058842674 -0.14394443 0.099991225 0.11241657 0.15747045 -0.1839604
-0.012433309 -0.68769735 0.07517779 0.23453337 -0.32886115 -0.031512592 -0.29634914 -0.10801128
-0.43881392 0.11790422 0.1128689 -0.08603224 0.03005566 0.18669215 0.46998078 0.15941454
-0.3581258 0.0048114117 -0.35152513 0.14636993 0.11723445 -0.05258718 -0.08822474 -0.32019904
0.019617837 -0.23595582 0.07038842 0.0810378 -0.2407909 0.014726616 0.11514964 0.0024573633
-0.045994483 0.035030235 0.04594614 0.099859074 0.028384937 0.032380134 -0.070796385 0.20435779
-0.21185924 -0.11082972 0.027829247 0.18244271 -0.24329363 0.13980043 -0.12835063 -0.099546395
0.0014798042 -0.045958187 0.0665605 0.20043585 0.03658515 0.1368487 0.18206221 -0.3183879
-0.038588915 0.018874906 -0.034915127 -0.61080575 -0.28642055 0.043762058 0.028182313 -0.17490439
-0.11690548 -0.40304986 -0.09160405 -0.051874656 -0.0559233 -0.3702085 -0.12338566 0.056101415
00000000: b421 653d 089e 2d3e 15d9 f43c 4363 38be
00000010: 72ca 383d 79be 143c dc4e c5bd 52d8 de3b
00000020: ae80 ecbd a726 4cbc 6e0b 083e e8d9 ae3e
00000030: cac3 91be 172d 33bc 2251 2ebe 36cf eebd
00000040: 8a0b 953d ca27 87bd 9ed2 f2bc 4ff4 bb3b
00000050: df7b 1c3e b1d4 bb3d 247b 2c3d c48f 773e
00000060: 51b4 70bd 67c7 073e 61dc 153d 59e3 91bc
00000070: 6d2c 8b3d 353a db3d 95ae e9bd 5003 88be
00000080: d682 74bd 6b2d 1c3d 98b6 adbd 1766 8d3d
00000090: b406 5dbe 5104 843c 01a3 24bf f9d8 aebd
000000a0: 04af 10be 18ef 793e 0c37 8dbe 2558 183e
000000b0: 452c e9bc 2ed7 833e 7343 613e 8b8d bc3d
000000c0: 989b 83bd f3b4 323e c8ab 663e 6dfd b03c
000000d0: e5b7 a53d 4294 2ebe 1384 a1be af2d 09be
000000e0: 32db 86bd b530 8fbc 6ab3 5ebe 4a26 85be
000000f0: 5191 e4bc b021 9ebc 800b 26bd d66e b53d
00000100: 5e6c 123b 1601 bdbd b77b 0b3d 238f 983d
00000110: 28de 5ebe 0cf5 0ebe c60f 013e 3ce9 30be
00000120: bfb8 92bd 8507 7d3c 6f28 083d caa1 f9bd
00000130: 71bf 59be 67c2 b53d 6c72 103e f4ad 13be
00000140: 0c34 d3be df55 083d 91b3 383e a8c0 3b3d
00000150: 9969 35bd 4249 503d 51eb 34be e803 97bc
00000160: 2b22 dd3d 9654 fe3d 8f23 6b39 1fd4 7ebe
00000170: 42a8 fcbc 4ea8 81bd 5bdb 33be 84d5 853d
00000180: 3740 be3c 72c9 80bd 9850 12be faaa b3bd
00000190: a782 483e a970 203d 1659 bfbd 7d69 adbb
000001a0: 5b58 b53d aa80 a0bd eb50 27bd e70d 8d3d
000001b0: b0ba 80be a6a2 3fbe 73b1 6cbd 73d4 cdbc
000001c0: f38e b63e 6fe3 29be 49a3 77be 05ae f63e
000001d0: c82c 4bbc 1ff3 783d 16b7 753d 1db4 85bd
000001e0: f362 07be 403e f4bd b902 29be 5965 9d3d
000001f0: 36c5 10bc cace a1be 440d 873c bc81 48be
00000200: f94a 38be 9ea0 d4be de5b b9bb c3f6 c03d
00000210: 2e56 f2bd c1ac 40bd 8cd3 8abe aebc 6dbc
00000220: 74d3 1fbe 5d3d e03d 2ce1 37be 2c38 34be
00000230: 3796 72bd c488 f1bc c89e 15bb 7b30 6b3e
00000240: 8d24 d0bd fb52 b23d 1f2e cbbe 5cf5 8cbe
00000250: 7b59 e33b f0ed 6e3e 81e3 3fbe 9239 03be
00000260: f215 cd3d 048f f43d 53b0 f1bd 1b97 56bd
00000270: e9e3 8abe f36b 423c 35a6 9fbe 9e3e ce3d
00000280: 0198 e83d 943d 1c3e 7360 4ebe be33 a8be
00000290: 1b71 b33d 53cc 213e 1538 233e edb9 2abe
000002a0: 958b aa3b c193 67bd f915 0ebc 7526 c0be
000002b0: 315a ab3b 9de9 f2bd a7ec 4cbd 5a0e 15bd
000002c0: 40b9 6bbe aefc f73c 0405 71bd 2b66 13be
000002d0: 33c8 cc3d a93a e63d ef3f 213e 1d60 3cbe
000002e0: 14b5 4bbc ef0c 30bf d0f6 993d 8429 703e
000002f0: 7d60 a8be 5913 01bd 13bb 97be 0535 ddbd
00000300: 38ac e0be c577 f13d cf27 e73d ac31 b0bd
00000310: 4a37 f63c 3a2c 3f3e 52a1 f03e 913d 233e
00000320: 445c b7be 0ca9 9d3b 1afb b3be 00e2 153e
00000330: 9e18 f03d a865 57bd 2caf b4bd 21f1 a3be
00000340: 96b5 a03c 679e 71be ce27 903d 25f7 a53d
00000350: e491 76be e847 713c 93d3 eb3d b70b 213b
00000360: b664 3cbd dd7b 0f3d 0532 3c3d ea82 cc3d
00000370: 8787 e83c 08a1 043d b2fd 90bd 2b43 513e
00000380: a1f1 58be b1fa e2bd 29fa e33c 43d2 3a3e
00000390: f721 79be d827 0f3e 596e 03be fbde cbbd
000003a0: fdf5 c13a a73e 3cbd df50 883d 0e3f 4d3e
000003b0: 4fda 153d 1122 0c3e 846e 3a3e bd03 a3be
000003c0: 690f 1ebd 8c9f 9a3c 2a03 0fbd c45d 1cbf
000003d0: b7a5 92be d83f 333d 98de e63c 231a 33be
000003e0: 246c efbd 8d5c cebe e79a bbbd 857a 54bd
000003f0: d50f 65bd f88b bdbe 9fb1 fcbd 99ca 653d

mlp.2.bias f4 [256]
-0.05069514 0.12262487 -0.09461314 -0.087305985 -0.0563019 0.004729791 -0.19699293 0.009997317
-0.14550261 0.18188293 -0.10936372 0.058332678 0.0024374719 0.110560104 -0.017093053 -0.1452602
0.09934165 0.124232344 0.01893393 0.09082074 -0.005273996 0.013570379 -0.047631364 0.135278
-0.13256052 0.051140763 -0.08400345 0.07362886 -0.002557339 0.10976105 -0.04821643 0.076328255
-0.10006697 0.09933092 -0.063893825 -0.043231614 -0.06680431 -0.14233771 0.07073974 -0.028258482
-0.11200611 -0.033842348 0.09503198 -0.094970055 -0.08844432 0.066874154 0.1355712 0.15755217
-0.052858904 -0.15086095 -0.050781738 -0.030323287 -0.2823774 -0.048806597 0.0058542117 0.04915577
0.008503709 0.07808967 -0.11235902 -0.154394 0.04810295 0.021093944 0.05703488 -0.013692917
0.1053431 -0.123371914 -0.07064336 0.0012595673 0.03310972 -0.18055874 0.0029555536 -0.050504714
-0.072733976 -0.11204501 0.01160018 -0.09347053 0.046405893 -0.04269594 -0.07081937 0.041097052
-0.05239889 -0.117769696 -0.089687414 0.11671667 -0.21860851 0.020404652 -0.20116444 0.09143785
-0.18465488 -0.033804376 0.027621407 0.040800564 0.00801455 -0.09957471 -0.03195895 0.07541933
0.0854042 -0.09402732 -0.04326533 0.0074875434 -0.2318643 0.10140777 0.19291997 -0.08181241
0.030487651 -0.087897114 0.098573826 0.008504113 -0.020370463 0.041609004 -0.035607714 -0.15111832
-0.13294931 -0.036388114 0.023386661 0.016940594 -0.06773015 -0.0034618538 0.036174145 0.00922205
0.043762248 -0.027913263 -0.14231479 -0.0017481474 0.049304817 0.14734742 0.08201211 -0.03324023
0.007450459 0.2020153 0.015167528 -0.039771907 0.07196669 -0.14217517 -0.089492604 -0.1898131
-0.20170057 -0.024857674 -0.007354782 -0.011500251 -0.021949125 -0.041619398 0.01253958 0.011757532
-0.054093245 -0.13063082 -0.100056164 -0.11368956 -0.121959664 0.05581426 -0.15200087 0.006858858
0.008042413 -0.23252253 0.038430743 -0.013062167 -0.16542542 0.122938834 -0.23884435 0.2240564
-0.064588375 0.08221122 -0.049477667 -0.14739576 -0.07623586 -0.024314737 -0.065892816 0.056758106
0.037254788 0.09655106 -0.0046627247 -0.07650547 0.04300447 0.069668636 -0.0048799957 -0.084273785
-0.0111411875 -0.083272465 0.0034453399 0.024184607 -0.20155975 -0.08996526 -0.17639565 0.13900262
-0.09608826 -0.074741736 -0.10017966 -0.035795443 0.037676234 0.045938756 0.038165264 -0.08943025
-0.110102095 -0.06585939 -0.009673919 0.15752459 -0.08739295 0.036133464 0.10198187 0.012295744
0.007691994 -0.0060535893 0.030636594 0.042696994 0.1592466 -0.16631927 -0.010445712 -0.10450678
0.1425149 0.19853102 0.10591407 -0.21774554 0.19257477 -0.19019768 -0.014749845 -0.14340888
0.27956554 0.069779694 0.041409876 -0.12477614 0.024920717 -0.13331299 -0.085948125 0.13743415
0.043123998 -0.080673486 -0.090794936 -0.0222012 -0.17463547 -0.23416987 -0.07230572 -0.15336199
-0.013628304 -0.058547124 0.0930934 -0.045413554 -0.015778027 -0.07070927 -0.06894123 0.05421773
-0.15057391 -0.0028729215 -0.055635512 0.01302482 -0.08790842 -0.13478167 0.05861337 -0.0064992257
-0.1223632 0.19389662 -0.19220957 -0.30097473 -0.0279686 -0.17796 -0.003074275 -0.2071928
00000000: b5a5 4fbd bf22 fb3d 89c4 c1bd 7bcd b2bd
00000010: d29c 66bd 5dfc 9a3b 84b8 49be c9cb 233c
00000020: a3fe 14be 853f 3a3e 16fa dfbd 3fee 6e3d
00000030: febd 1f3b 566d e23d bb06 8cbc 17bf 14be
00000040: a373 cb3d 876d fe3d 541b 9b3c 3900 ba3d
00000050: 7cd1 acbb 4b56 5e3c 1b19 43bd 5186 0a3e
00000060: f2bd 07be fa78 513d 000a acbd baca 963d
00000070: 0799 27bb 67ca e03d 977e 45bd fd51 9c3d
00000080: e9ef ccbd 026e cb3d c4da 82bd a213 31bd
00000090: b3d0 88bd fac0 11be ffdf 903d 557e e7bc
000000a0: 7663 e5bd 469e 0abd 20a0 c23d a97f c2bd
000000b0: 4c22 b5bd 51f5 883d 2dd3 0a3e 5b55 213e
000000c0: 9482 58bd 4b7b 1abe 8300 50bd 8b68 f8bc
000000d0: c593 90be 6de9 47bd b0d4 bf3b 9057 493d
000000e0: 2453 0b3c 7aed 9f3d 7c1c e6bd 7619 1ebe
000000f0: 9907 453d 35cd ac3c 689d 693d 4258 60bc
00000100: 20be d73d 6aaa fcbd 77ad 90bd 1118 a53a
00000110: 0f9e 073d 64e4 38be f6b1 413b 08de 4ebd
00000120: 8df5 94bd db77 e5bd ae0e 3e3c 7a6d bfbd
00000130: 1b14 3e3d f0e1 2ebd bf09 91bd 6255 283d
00000140: 38a0 56bd 3d31 f1bd 09ae b7bd 2609 ef3d
00000150: e9da 5fbe a827 a73c 0dfe 4dbe c443 bb3d
00000160: 2b16 3dbe 7576 0abd 4a46 e23c 7e1e 273d
00000170: 764f 033c d3ed cbbd 63e7 02bd 7375 9a3d
00000180: 66e8 ae3d 6591 c0bd fd36 31bd 115a f53b
00000190: d66d 6dbe e0ae cf3d d08c 453e 448d a7bd
000001a0: 3dc1 f93c 6703 b4bd 13e1 c93d d654 0b3c
000001b0: f5df a6bc 346e 2a3d 65d9 11bd c3be 1abe
000001c0: dd23 08be b40b 15bd 6295 bf3c 00c7 8a3c
000001d0: 1bb6 8abd 45e0 62bb 572b 143d 1518 173c
000001e0: 0b40 333d 5baa e4bc f8ba 11be 1822 e5ba
000001f0: d9f3 493d 3ee2 163e f7f5 a73d e826 08bd
00000200: fb22 f43b 19dd 4e3e 3981 783c dee7 22bd
00000210: 4663 933d 5e96 11be e647 b7bd 5e5e 42be
00000220: 988a 4ebe 52a2 cbbc 6200 f1bb 8c6b 3cbc
00000230: a7ce b3bc 1a79 2abd d072 4d3c aaa2 403c
00000240: e190 5dbd 16c4 05be 3fea ccbd 12d6 e8bd
00000250: fdc5 f9bd 7e9d 643d 1ea6 1bbe 45c0 e03b
00000260: 53c4 033c 631a 6ebe 8e69 1d3d b302 56bc
00000270: 4865 29be 5bc7 fb3d 9d93 74be 0a6f 653e
00000280: e946 84bd 5b5e a83d 18a9 4abd eaee 16be
00000290: 8c21 9cbd b32f c7bc d0f2 86bd 307b 683d
000002a0: 7a98 183d 90bc c53d c5c9 98bb e6ae 9cbd
000002b0: 7525 303d 6eae 8e3d 5fe8 9fbb bc97 acbd
000002c0: 8789 36bc c18a aabd 36cb 613b cc1e c63c
000002d0: ae65 4ebe b53f b8bd 10a1 34be b456 0e3e
000002e0: ecc9 c4bd 3212 99bd fe2a cdbd 3e9e 12bd
000002f0: 6552 1a3d 472a 3c3d 2e53 1c3d 3527 b7bd
00000300: 357d e1bd 4ae1 86bd 5b7f 1ebc 204e 213e
00000310: 13fb b2bd af00 143d dfdb d03d 1774 493c
00000320: 1f0d fc3b 305d c6bb 98f9 fa3c 0be3 2e3d
00000330: 8a11 233e 994f 2abe 7e24 2bbc a707 d6bd
00000340: 6def 113e b74b 4b3e 7ae9 d83d b0f8 5ebe
00000350: 5232 453e 2ec3 42be 55a9 71bc c7d9 12be
00000360: 3723 8f3e a8e8 8e3d 679d 293d a28a ffbd
00000370: 8826 cc3c 3383 08be 9205 b0bd 8abb 0c3e
00000380: caa2 303d 2438 a5bd b2f2 b9bd 4adf b5bc
00000390: a4d3 32be 3aca 6fbe 0515 94bd ed0a 1dbe
000003a0: 4049 5fbc 1ccf 6fbd c1a7 be3d 9003 3abd
000003b0: ec40 81bc 06d0 90bd 0f31 8dbd 6913 5e3d
000003c0: 0c30 1abe a047 3cbb 10e2 63bd 0e66 553c
000003d0: 5409 b4bd 3504 0abe 9314 703d 75f7 d4bb
000003e0: 8f99 fabd d68c 463e 96d2 44be 5c19 9abe
000003f0: 681e e5bc 253b 36be c779 49bb 592a 54be

mlp.4.weight f4 [128, 256]
0.21259287 -0.11687663 -0.0052114967 -0.08557823 -0.09476613 0.06218692 -0.1213524 0.022896713
-0.1678054 -0.01656958 -0.09580448 0.17577842 -0.008537888 -0.14176236 -0.3849079 0.28048635
0.01864824 0.2955049 0.114770696 0.019793142 0.14590852 0.028281977 -0.10460939 0.31048054
-0.075262785 0.24233416 0.20453502 -0.07690384 0.0790448 0.018070126 -0.15207158 0.017422982
0.075512335 -0.06599167 -0.04454055 0.0060280706 -0.10345537 -0.018518124 0.042472705 -0.026738113
0.099670015 0.1137868 0.14988387 0.013130071 -0.030198142 0.098192826 -0.057448447 -0.027864723
-0.06529713 0.08084214 -0.16268511 0.03398709 0.1682802 0.0058156606 -0.21676147 -0.0039564264
0.21215974 -0.04621906 -0.11008424 -0.0063001583 -0.19360931 0.062316865 -0.00787404 -0.12044201
0.00614529 -0.0034938522 0.09089736 0.21117787 -0.009542487 -0.098771326 0.04992784 -0.049222447
0.13377386 -0.01541631 -0.033443715 0.33344296 -0.1284971 0.023337515 0.16488223 0.06383376
-0.027286345 -0.11136317 -0.2346026 -0.035464853 0.08384839 -0.09963803 0.13015655 0.051005296
0.09261779 -0.006384979 -0.09669393 -0.056468237 0.2661025 -0.15891173 -0.023505678 0.14896196
-0.19800183 0.107399546 -0.0064251013 -0.14664117 0.058345817 0.13742146 -0.08555917 -0.09384743
0.070729025 -0.4803349 -0.18173581 -0.04964442 -0.07503963 -0.10598447 -0.18487155 -0.46034974
0.0029987495 -0.16400291 0.17785059 0.15047298 0.08251391 -0.02018191 0.09081151 -0.17773661
0.016791401 -0.18686078 -0.20676003 -0.16638424 0.09807739 0.3666598 0.067088805 -0.021157369
-0.07285189 -0.14275943 0.023744758 -0.097643934 -0.27272525 0.105158664 0.004678566 -0.0036304425
0.22263321 0.08034058 -0.037463866 -0.23281085 -0.08344546 0.21381877 -0.019187707 0.032375894
0.0934766 0.09710514 0.09796651 -0.10126623 0.009271146 -0.028895574 -0.083251484 0.07220755
0.04310117 -0.22439642 -0.13141032 -0.004287755 0.045934215 0.09817929 -0.14734219 -0.5730777
-0.06760229 -0.05732603 -0.28768647 0.13981733 0.10489175 0.053762686 -0.16466105 0.21597584
-0.0075495476 -0.103453726 -0.19092424 0.027475031 -0.74412405 0.107806586 0.15901488 -0.34949687
-0.005663406 -0.15357389 0.23208351 0.009370036 -0.21073432 -0.21022478 -0.51602006 0.118447036
-0.13420886 0.021822965 -0.007814371 -0.007715034 0.16472325 0.05373848 -0.15919301 0.0058756527
-0.12996782 -0.0027045878 -0.10486796 0.016274711 -0.22564673 -0.10606997 0.073809 0.07332221
0.079310514 -0.050680924 0.0799707 0.04668021 -0.21406923 -0.039956313 -0.053815592 0.10752876
-0.08145082 0.21065536 0.11059746 0.0049504344 -0.05182011 -0.117158666 0.15217713 -0.28567687
0.14016815 -0.06058273 -0.14971976 -0.097580545 -0.043236624 0.042492423 -0.06683436 -0.40965968
0.016775295 -0.07726538 0.074805066 0.0805982 -0.2809965 0.0380662 -0.2495012 -0.08831629
-0.10438567 -0.15822804 0.13715647 0.010373501 0.071698114 -0.099082835 -0.019266209 0.20982498
0.08676317 -0.1949558 -0.03209153 -0.0020301475 -0.20006539 -0.06036691 0.070023574 -0.06424663
-0.12118536 0.085340574 0.04789895 -0.077255234 0.23710674 0.26498392 0.002222774 0.273437
00000000: f2b1 593e 045d efbd 34c5 aabb a443 afbd
00000010: bf14 c2bd b6b7 7e3d 9b87 f8bd e391 bb3c
00000020: 2ed5 2bbe eebc 87bc 2435 c4bd 42ff 333e
00000030: 7fe2 0bbc 272a 11be a612 c5be e89b 8f3e
00000040: 32c4 983c 6b4c 973e e60c eb3d 3a25 a23c
00000050: 0b69 153e 9baf e73c 733d d6bd 4ef7 9e3e
00000060: 6023 9abd 7226 783e a171 513e c37f 9dbd
00000070: 3de2 a13d cd07 943c a7b8 1bbe a4ba 8e3c
00000080: 36a6 9a3d a426 87bd 2770 36bd 1f87 c53b
00000090: 69e0 d3bd 52b3 97bc dcf7 2d3d e309 dbbc
000000a0: cb1f cc3d 0e09 e93d 287b 193e 821f 573c
000000b0: 1862 f7bc 5219 c93d 104f 6bbd 8f44 e4bc
000000c0: 80ba 85bd 9090 a53d ed96 26be 0c36 0b3d
000000d0: a551 2c3e 4c91 be3b b8f6 5dbe e9a4 81bb
000000e0: 6740 593e 3250 3dbd d973 e1bd 8f71 cebb
000000f0: 8541 46be f83f 7f3d 1e02 01bc 4daa f6bd
00000100: 6e5e c93b 1df9 64bb 6528 ba3d 033f 583e
00000110: 1758 1cbc 9f48 cabd 2281 4c3d 7a9d 49bd
00000120: 04fc 083e b194 7cbc 47fc 08bd 09b9 aa3e
00000130: be94 03be 512e bf3c e3d6 283e 46bb 823d
00000140: 9d87 dfbc 6012 e4bd aa3b 70be 9843 11bd
00000150: b4b8 ab3d 060f ccbd c247 053e eeea 503d
00000160: 65ae bd3d 1639 d1bb 7807 c6bd 3d4b 67bd
00000170: 963e 883e c2b9 22be fb8e c0bc 7c89 183e
00000180: fec0 4abe 4bf4 db3d a889 d2bb 1a29 16be
00000190: 06fc 6e3d 36b8 0c3e a539 afbd 1533 c0bd
000001a0: 61da 903d 75ee f5be f418 3abe f357 4bbd
000001b0: 61ae 99bd 630e d9bd f84e 3dbe f6b2 ebbe
000001c0: ab86 443b 61f0 27be 771e 363e 9715 1a3e
000001d0: 0efd a83d 8854 a5bc 63fb b93d 9600 36be
000001e0: 1f8e 893c 6f58 3fbe e7b8 53be a160 2abe
000001f0: ccdc c83d d5ba bb3e db65 893d 3852 adbc
00000200: 5f33 95bd 872f 12be 5e84 c23c 8bf9 c7bd
00000210: a5a2 8bbe 6d5d d73d a84e 993b b8ec 6dbb
00000220: f6f9 633e 9a89 a43d b673 19bd f865 6ebe
00000230: 74e5 aabd 4ff3 5a3e 8a2f 9dbc 969c 043d
00000240: a970 bf3d 0fdf c63d aaa2 c83d ab64 cfbd
00000250: 01e6 173c 69b6 ecbc c17f aabd 8de1 933d
00000260: da8a 303d 2dc8 65be 6d90 06be 4c80 8cbb
00000270: 8425 3c3d 3912 c93d dfe0 16be 38b5 12bf
00000280: 1273 8abd b3ce 6abd a44b 93be 462c 0f3e
00000290: 7cd1 d63d 4336 5c3d e89c 28be c528 5d3e
000002a0: 3262 f7bb 8cdf d3bd a581 43be 5113 e13c
000002b0: ea7e 3ebf b3c9 dc3d ccd4 223e 41f1 b2be
000002c0: 1894 b9bb 7942 1dbe 4da7 6d3e c884 193c
000002d0: bdca 57be 2a45 57be e419 04bf 5c94 f23d
000002e0: 0c6e 09be 13c6 b23c d907 00bc 65ce fcbb
000002f0: 36ad 283e e11c 5c3d 7e03 23be 8c88 c03b
00000300: 4916 05be 743f 31bb 03c5 d6bd 8b52 853c
00000310: f00f 67be 363b d9bd 2c29 973d f429 963d
00000320: 8d6d a23d cd96 4fbd aec7 a33d bf33 3f3d
00000330: f734 5bbe 3ba9 23bd bd6d 5cbd 0a38 dc3d
00000340: b0cf a6bd 0ab6 573e ec80 e23d 4137 a23b
00000350: 5341 54bd e2f0 efbd 52d4 1b3e 3d44 92be
00000360: 3d88 0f3e 9925 78bd 2350 19be 4fd8 c7bd
00000370: e318 31bd 890c 2e3d 74e0 88bd eabe d1be
00000380: 586c 893c 503d 9ebd 6633 993d ab10 a53d
00000390: c6de 8fbe 4eeb 1b3d 3e7d 7fbe 2cdf b4bd
000003a0: 27c8 d5bd 8806 22be bf72 0c3e 9ef5 293c
000003b0: 76d6 923d f1eb cabd 2bd4 9dbc 5cdc 563e
000003c0: e4b0 b13d 7ea2 47be 6872 03bd 390c 05bb
000003d0: f1dd 4cbe 4b43 77bd 8568 8f3d bd93 83bd
000003e0: 0830 f8bd 0ac7 ae3d b031 443d fe37 9ebd
000003f0: 1ccc 723e f9ab 873e f6ab 113b efff 8b3e

mlp.4.bias f4 [128]
0.002835407 0.10858134 -0.014185781 -0.09494752 0.00473242 0.29761216 0.10623665 -0.1555241
0.23425484 0.010139056 -0.01994961 0.04931849 0.080196254 0.1360468 0.11502056 -0.028105747
0.12668498 -0.10906856 -0.11066726 0.15335388 -0.035952058 -0.21602997 -0.00040149633 0.03946478
-0.15050389 -0.08522085 -0.12354738 -0.13558593 -0.016484482 0.00030746285 -0.33106473 0.109453954
0.0649522 0.057683215 0.23667961 -0.036606595 0.022433909 0.11679101 -0.030393386 0.07363549
-0.006301867 -0.14452675 -0.13890202 0.04281935 0.097258784 -0.057380192 -0.021064404 0.054387406
-0.057270873 0.14404954 0.14914736 0.09556049 0.0768086 -4.621641e-05 0.14694306 0.1180458
0.09471358 0.15076803 -0.06013509 0.19416977 -0.12439734 -0.07247681 0.079776436 0.0807005
-0.01793687 0.08041734 -0.09676922 -0.13898046 -0.11362043 -0.053446114 0.24386299 0.088563725
0.061425757 0.07073043 -0.021764098 -0.10279621 0.06459658 -0.19792095 -0.1947354 -0.09019956
0.05471288 0.13704155 -0.1271002 -0.110113226 0.032642536 -0.03684625 0.01652129 -0.029092576
0.24444894 0.15291218 0.1254679 -0.05190431 0.090087846 0.15977454 -0.041399937 -0.039935447
0.06598808 0.07791267 -0.00022368264 0.080637656 0.15421997 0.19274208 0.10292023 -0.049892895
0.043080438 -0.009942469 0.029332913 0.14881268 0.22148368 -0.12029566 -0.04728185 -0.046261895
0.061252356 -0.11411306 -0.1784498 -0.07438328 0.036034204 0.09987348 0.063660234 0.19889553
-0.025722558 -0.011837966 -0.036411133 -0.049383853 -0.12097944 0.07723829 -0.21652378 0.056379315
00000000: 3cd2 393b e55f de3d 7a6b 68bc d873 c2bd
00000010: 6b12 9b3b 9f60 983e 9a92 d93d b641 1fbe
00000020: 80e0 6f3e 481e 263c 5d6d a3bc 2f02 4a3d
00000030: ef3d a43d da4f 0b3e e68f eb3d 063e e6bc
00000040: b5b9 013e 565f dfbd 84a5 e2bd cd08 1d3e
00000050: 7742 13bd f636 5dbe ed7f d2b9 d2a5 213d
00000060: b11d 1abe 4588 aebd 6906 fdbd 0ad7 0abe
00000070: 770a 87bc f732 a139 5181 a9be 6529 e03d
00000080: a905 853d 3c45 6c3d 245c 723e ccf0 15bd
00000090: 51c7 b73c 2030 ef3d 8dfb f8bc 34ce 963d
000000a0: e47f cebb d2fe 13be 553c 0ebe 5863 2f3d
000000b0: 9d2f c73d 7e07 6bbd 428f acbc 54c5 5e3d
000000c0: dd94 6abd b981 133e 16ba 183e 38b5 c33d
000000d0: d44d 9d3d 7ed8 41b8 3e78 163e ffc1 f13d
000000e0: 32f9 c13d ef62 1a3e 3650 76bd 71d4 463e
000000f0: 08c4 febd b96e 94bd d461 a33d 4e46 a53d
00000100: 58f0 92bc d9b1 a43d f12e c6bd e550 0ebe
00000110: d4b1 e8bd 50ea 5abd 38b7 793e e660 b53d
00000120: 9399 7b3d 1edb 903d 9f4a b2bc d286 d2bd
00000130: 364b 843d caab 4abe b768 47be 8cba b8bd
00000140: 9d1a 603d 9f54 0c3e 8e26 02be 0b83 e1bd
00000150: 2eb4 053d 18ec 16bd a857 873c 8e53 eebc
00000160: d350 7a3e 0395 1c3e a87a 003e 9d99 54bd
00000170: fa7f b83d f09b 233e fb92 29bd 5a93 23bd
00000180: c224 873d ae90 9f3d 5a8c 6ab9 5b25 a53d
00000190: d7eb 1d3e 2e5e 453e d7c7 d23d 7e5c 4cbd
000001a0: 1d75 303d bde5 22bc 944b f03c 5a62 183e
000001b0: 9ecc 623e 925d f6bd 9daa 41bd 1d7d 3dbd
000001c0: c0e3 7a3d 1cb4 e9bd 8bbb 36be 4356 98bd
000001d0: 9a98 133d 788a cc3d 4c60 823d 45ab 4b3e
000001e0: 1db8 d2bc 07f4 41bc d723 15bd b946 4abd
000001f0: 12c4 f7bd 1c2f 9e3d 69b8 5dbe ffed 663d

mlp.6.weight f4 [2, 128]
-0.23981173 -0.0064405426 -0.2697419 -0.21144596 -0.55732626 0.19183768 -0.16274379 -0.14448845
0.18831863 -0.36109743 -0.021049704 -0.03219418 0.35649446 0.0335159 0.017037045 0.114342414
0.27152866 0.3953428 -0.5660888 0.39873177 -0.14083883 -0.099147394 0.36214316 0.47604385
-0.032624647 0.013232176 -0.5656168 -0.2001572 -0.39567867 -0.046880867 -0.16708052 -0.15706585
0.26566815 -0.14936545 0.13091092 -0.3345191 0.058381245 -0.15725555 0.38772425 0.029984452
0.118595764 0.009419845 0.016057653 0.29096508 -0.577259 -0.38300163 0.4229566 0.32800305
-0.21663976 0.28182864 0.1689962 0.44316348 -0.1133903 0.1395201 0.021270145 -0.1284218
-0.40445307 0.5460239 -0.17434192 0.16851112 -0.36043218 0.015206824 0.28881174 0.1595233
0.04860658 0.35435307 -0.3522376 -0.17677319 -0.6396354 -0.35427782 0.011590839 0.07595766
0.6134052 0.05326566 -0.26795992 -0.17642713 0.35146266 -0.2180148 0.07308743 0.033743903
-0.02536854 0.10938842 0.05316564 -0.6850843 -0.2156228 0.16317117 0.091526784 0.39389926
-0.17870641 0.12127161 0.47695544 -0.23991035 0.41248733 0.052833162 -0.09959129 0.092506945
0.06912983 -0.014528857 -0.22722797 0.26262358 0.4662106 0.22335231 0.6610096 0.075518385
0.4765206 0.42951962 0.5219958 0.19547044 -0.25768262 -0.26030406 -0.37556076 -0.64259046
0.24039175 0.0076657585 -0.024369357 -0.38454616 -0.32307214 0.4305962 0.27034193 0.58934927
-0.20579897 0.42388868 -0.0769638 -0.083588846 -0.21742706 -0.13275255 -0.231161 0.29583135
-0.0017073365 -0.5528081 0.09673635 -0.6825629 -0.21581627 0.46087298 0.7785624 0.24526303
0.13886644 -0.49013865 -0.38610327 0.6192684 -0.26061636 0.14537136 0.15491273 -0.3877275
-0.3624142 -0.3281223 0.07903979 -0.08827732 -0.04150577 0.20038359 0.012707272 -0.48701158
0.11576993 -0.62664855 -0.0119529525 -0.41673964 -0.25192848 0.4126886 -0.26994067 0.08197363
0.4016872 0.33115062 0.39139363 0.03335003 -0.32205546 0.6231224 0.05380989 0.3149328
0.46030417 -0.44993234 -0.4304983 0.18815958 0.00701586 0.13451192 -0.16195399 0.1783423
0.025216771 0.41383234 0.17512375 0.42914402 0.3938985 0.42910185 0.14862326 0.3772913
0.22663003 -0.525843 -0.20104371 0.2768931 -0.26425576 -0.11310317 -0.19048986 0.048334595
0.74592716 -0.14966649 0.04052054 -0.26184708 0.053780634 -0.2795049 0.06904555 0.5616434
0.14750004 0.40847304 -0.09155036 -0.09757068 0.09476228 -0.6382105 -0.35313419 -0.5256727
0.030835953 0.7988404 -0.49325746 0.103765756 0.40189013 -0.15495637 -0.058250766 0.29493034
0.5980694 0.17626484 -0.37448713 0.03528911 -0.3315339 0.4417118 0.38400704 -0.6239334
-0.5385105 0.66469705 0.26933327 0.18634532 0.124726705 0.20658283 -0.5655344 0.015245929
-0.4081347 -0.36870864 -0.19694448 0.83054966 0.62628335 0.014167826 -0.05908027 0.063580036
0.23875135 -0.25368524 -0.93619496 -0.1707446 0.101254545 0.16726866 -0.44559738 0.081566095
0.102907695 0.37752357 -0.3430589 -0.62781376 -0.2234714 0.13507268 0.007792966 0.039536476
00000000: 3591 75be 300b d3bb 9c1b 8abe 4a85 58be
00000010: efac 0ebf 1971 443e 4fa6 26be c8f4 13be
00000020: 99d6 403e c3e1 b8be 6e70 acbc 0bde 03bd
00000030: 7186 b63e f847 093d 4691 8b3c 5b2c ea3d
00000040: ce05 8b3e 5f6a ca3e 32eb 10bf 9226 cc3e
00000050: 0e38 10be ca0d cbbd d46a b93e 05bc f33e
00000060: 6ca1 05bd c5cb 583c 43cc 10bf 02f6 4cbe
00000070: 6596 cabe 2706 40bd 2817 2bbe dfd5 20be
00000080: a805 883e 42f3 18be 830d 063e 1646 abbe
00000090: 2c21 6f3d 9907 21be cb83 c63e f4a1 f53c
000000a0: 56e2 f23d b255 1a3c 578b 833c 60f9 943e
000000b0: 3fc7 13bf ca18 c4be c48d d83e 04f0 a73e
000000c0: d0d6 5dbe d84b 903e 570d 2d3e 53e6 e23e
000000d0: 2c39 e8bd 5bde 0e3e ba3e ae3c 0181 03be
000000e0: 7914 cfbe 39c8 0b3f b086 32be 2e8e 2c3e
000000f0: 918a b8be 0b26 793c 22df 933e 135a 233e
00000100: b117 473d c46d b53e 7d58 b4be 0804 35be
00000110: 25bf 23bf e763 b5be 81e7 3d3c b18f 9b3d
00000120: 2008 1d3f 182d 5a3d 0b32 89be 50a9 34be
00000130: eaf2 b33e 463f 5fbe ddae 953d 0c37 0a3d
00000140: afd1 cfbc 0907 e03d 37c4 593d af61 2fbf
00000150: 39cc 5cbe 5816 273e 6572 bb3d 2aad c93e
00000160: d0fe 36be 405d f83d 8133 f43e 0fab 75be
00000170: 8a31 d33e 9667 583d 85f6 cbbd 4874 bd3d
00000180: f193 8d3d 710a 6ebc 73ae 68be 9976 863e
00000190: 28b3 ee3e 78b6 643e ed37 293f 62a9 9a3d
000001a0: 82fa f33e ffe9 db3e 84a1 053f 6729 483e
000001b0: faee 83be 9346 85be 8049 c0be cf80 24bf
000001c0: 4129 763e 0b31 fb3b 3fa2 c7bc 3ce3 c4be
000001d0: b669 a5be 1b77 dc3e 426a 8a3e 98df 163f
000001e0: f7bc 52be f007 d93e 329f 9dbd a130 abbd
000001f0: 33a5 5ebe 49f0 07be 78b5 6cbe 3577 973e
00000200: b5c8 dfba d584 0dbf b51d c63d 71bc 2ebf
00000210: f1fe 5cbe 8bf7 eb3e de4f 473f 3b26 7b3e
00000220: 0133 0e3e 74f3 fabe 54af c5be 6088 1e3f
00000230: 826f 85be 3bdc 143e 71a1 1e3e 3884 c6be
00000240: 5b8e b9be a5ff a7be 9ddf a13d bdca b4bd
00000250: f401 2abd 5b31 4d3e 2932 503c 9559 f9be
00000260: c918 ed3d 0a6c 20bf 51d6 43bc e65e d5be
00000270: c5fc 80be ec4b d33e aa35 8abe cae1 a73d
00000280: f2a9 cd3e 938c a93e bf64 c83e 0b9a 083d
00000290: 74e4 a4be f384 1f3f c267 5c3d df3e a13e
000002a0: fdac eb3e 885d e6be 466a dcbe e8ac 403e
000002b0: 4de5 e53b 7ebd 093e 44d7 25be 5d9f 363e
000002c0: 6793 ce3c d5e1 d33e a453 333e c4b8 db3e
000002d0: 10ad c93e 3db3 db3e b230 183e 532c c13e
000002e0: b411 683e a69d 06bf 67de 4dbe efc4 8d3e
000002f0: 884c 87be a3a2 e7bd c60f 43be 7ffa 453d
00000300: 15f5 3e3f 2c42 19be def8 253d d210 86be
00000310: 1549 5c3d 441b 8fbe c167 8d3d ddc7 0f3f
00000320: 400a 173e 6123 d13e c17e bbbd 23d3 c7bd
00000330: ba12 c23d c361 23bf 01ce b4be 7c92 06bf
00000340: ae9b fc3c ce80 4c3f 3e8c fcbe 2483 d43d
00000350: 8bc4 cd3e e2ac 1ebe 5b98 6ebd 1c01 973e
00000360: 141b 193f c57e 343e c7bc bfbe 508b 103d
00000370: d0be a9be 0d28 e23e 929c c43e 19ba 1fbf
00000380: d3db 09bf 9629 2a3f 0de6 893e 4fd1 3e3e
00000390: b770 ff3d 738a 533e ddc6 10bf 10ca 793c
000003a0: 08f7 d0be 61c7 bcbe d0ab 49be e79e 543f
000003b0: 1b54 203f 2b20 683c 27fe 71bd 4036 823d
000003c0: 3c7b 743e 08e3 81be 79aa 6fbf acd7 2ebe
000003d0: 8b5e cf3d 7a48 2b3e 5725 e4be 200c a73d
000003e0: 45c1 d23d c54a c13e 6ba5 afbe 67b8 20bf
000003f0: b0d5 64be 7e50 0a3e 235c ff3b 00f1 213d

mlp.6.bias f4 [2]
0.2161826 0.21883684
00000000: f95e 5d3e c416 603e
